Models/best_model_kmer.pt (torch, 830785 bytes, 14 tensors)

embedding.weight f4 [1025, 64]
000000 97 8f 13 3f 44 65 a7 3e d4 9c 47 3f af 99 f5 be
       0.57640976 0.32694447 0.77973676 -0.47968814
000010 51 f4 fc 3e a3 42 0e bf 2d ff 84 bf f2 ae 5b bf
       0.4940515 -0.5557043 -1.0390373 -0.8581382
000020 0b 0b c8 bf dc 70 a7 3e 6f a2 e4 bd 05 4d b3 bf
       -1.562837 0.32703292 -0.11163794 -1.400788
000030 d2 1c b4 3f 5f 3c 6e be 3b a0 0a bd 44 94 86 3f
       1.4071295 -0.23265217 -0.033844214 1.0513997
000040 15 e2 66 be f9 43 45 3f 35 6b d7 bc 3b 4b f4 3e
       -0.22547181 0.77056843 -0.026296237 0.47713646
000050 f2 07 10 c0 be 07 bd 3f 91 ac b1 bf 36 77 59 be
       -2.250485 1.4767988 -1.3880788 -0.21236882
000060 aa d0 36 be 5f 6f a2 bc 86 f7 e8 3d 89 ed 8b bf
       -0.17853037 -0.019828497 0.11375336 -1.0931865
000070 f0 84 b6 3e 34 e8 52 3f 53 b3 8f 3e 23 3b 17 40
       0.35648298 0.82385564 0.280665 2.3629844
000080 2a 71 75 3e 16 67 ca 3f ad 27 05 c0 7d da d3 bd
       0.2396895 1.5812709 -2.0805466 -0.10344408
000090 6a 4d 62 3f 91 eb f8 bf 39 ad b2 bf 28 7f ad 3e
       0.88399374 -1.9446889 -1.3959113 0.33886075
0000a0 1f b2 9f 3f 90 42 42 bd 86 43 08 bd 4e d4 b6 bf
       1.2476233 -0.04742676 -0.03326752 -1.428354
0000b0 2f e5 d6 be 8a b7 70 3f 92 96 83 3f 3b 57 17 bf
       -0.41971728 0.9403006 1.0280325 -0.5911748
0000c0 59 96 8a bf d8 59 19 3f 37 f8 a7 3f 8e bb 5b 3f
       -1.0827132 0.59902716 1.3122624 0.8583306
0000d0 60 8c 50 bf 7e 10 98 bf 2e a7 81 3f 49 6e 91 3e
       -0.81464195 -1.1880033 1.0129144 0.28404453
0000e0 fd a2 25 bf 5b e5 25 bf 9b 0a ce bf 02 5c c1 bf
       -0.64701825 -0.64803094 -1.6096987 -1.5106204
0000f0 46 53 d3 be a1 b6 85 be 70 89 d1 bf a0 92 0e bf
       -0.4127447 -0.26115897 -1.6370068 -0.5569248
000100 c6 98 5f 3f db 6e d8 3e 9e 84 b6 bf 60 0f 31 ba
       0.8734249 0.42272076 -1.4259222 -0.0006754305
000110 81 12 c5 bf 0d 4f e3 be 03 2f dd be 94 27 09 bf
       -1.5396272 -0.44396248 -0.4319993 -0.53576016
000120 5b cf c1 bf 4a 5b 0e 3e 8d e2 d6 bc 2f 61 42 bf
       -1.5141405 0.13902012 -0.026231075 -0.7592954
000130 bf cf 97 3f 27 69 a8 bf ad a3 1e bf 03 f3 40 bf
       1.1860274 -1.315709 -0.619685 -0.75370806
000140 6a 1b cd 3f cc 1a c9 3e f6 d6 b6 bf 6b c2 7b bf
       1.6023991 0.39278257 -1.4284351 -0.98343533
000150 7d b5 44 be 22 5a f4 3f 83 cb 59 3f 16 b0 ca bf
       -0.19209857 1.9090006 0.8507616 -1.5834987
000160 52 b0 33 bf ce 57 a3 3f ef d0 81 3e b1 83 91 bf
       -0.7019092 1.2761171 0.25354716 -1.1368314
000170 db e3 9f 3f a6 0b 0e 3e d0 1d 76 3f c8 a2 ef 3e
       1.2491411 0.13871631 0.9613924 0.4680388
000180 cd e8 aa bf da aa c5 3f 05 08 9c 3e e1 ed 77 3f
       -1.3352295 1.5442765 0.30474868 0.9684735
000190 73 11 3a be ac 8b cb 3f 14 98 57 3e cf b2 4e 3f
       -0.18170719 1.5902 0.21054107 0.8074159
0001a0 5b 10 92 3e 81 c4 96 be 06 09 e0 3e b2 8c a4 bf
       0.28528103 -0.29446796 0.43756884 -1.2855437
0001b0 eb f3 ca 3e 81 ac 02 bf 7a 0e 25 bd 06 ee 52 3f
       0.3963922 -0.5104447 -0.04029701 0.82394445
0001c0 b1 ab a8 be f4 15 10 be c8 51 80 3f 1a 3b 68 40
       -0.3294349 -0.14070874 1.0024958 3.6286073
0001d0 dd 5a 8a 3f 01 c6 03 bf 2d 43 fe 3e a1 47 9b 3e
       1.0808979 -0.51474005 0.49660626 0.30328086
0001e0 72 59 4b 3d b7 27 23 3f 35 64 e1 3e 95 ab 95 3d
       0.04964585 0.63732475 0.44021764 0.07308117
0001f0 ac 5e 07 bd 80 0e f5 3f 7f af c7 3f ef 47 cf bf
       -0.03304927 1.914505 1.5600432 -1.6193827
000200 4a 94 2c be ce b7 f4 bf 59 8c 2b 3f b3 3a 90 bf
       -0.16853443 -1.9118593 0.6701103 -1.1267914
000210 19 94 94 3f f5 b9 2f bf 3d 30 25 bf 29 13 26 3f
       1.1607696 -0.6864312 -0.6452673 0.64872986
000220 09 46 29 3f 4b f9 90 3e 40 29 18 3f 3c 4c 03 40
       0.6612249 0.28315195 0.5943794 2.051528
000230 35 0d 5a be 6b 13 9b bb 7c 46 08 3e 59 d8 a4 3e
       -0.212941 -0.0047325394 0.13308138 0.3219631
000240 43 0e bf 3e 94 6e 83 3e 3f 94 ef 3d 51 55 6a bf
       0.37315568 0.25670302 0.116981976 -0.9153643
000250 62 bb e7 bf dd 00 34 bf e1 c2 81 3f c6 f7 a4 3f
       -1.810406 -0.7031382 1.0137597 1.2888114
000260 9a a3 05 bf 0a 2c 53 bf 8e 57 44 bf 24 67 00 3e
       -0.5220276 -0.82489073 -0.766961 0.12539345
000270 2d fd 77 3f 6c 2a ed 3e d5 de 96 be 6c 84 d6 3e
       0.9687069 0.46321428 -0.29466882 0.41897905
000280 1e c6 c4 3e 0c c9 c7 bf 1b 79 7d bf 36 12 29 bf
       0.384324 -1.560823 -0.9901292 -0.6604341
000290 45 6e 59 bf 0b f1 5e 3f 2b c1 d3 be e5 2d 46 bf
       -0.8493388 0.8708655 -0.41358313 -0.7741378
0002a0 2b 40 d6 3e fc 54 21 3f db 7d 30 3e 33 57 7f bf
       0.4184583 0.630203 0.1723551 -0.9974243
0002b0 bc 5c 68 3f 35 84 8d bf d6 06 24 be 7c b3 11 bf
       0.907665 -1.1055971 -0.16018233 -0.56914496
0002c0 09 22 a0 bf f8 15 ba 3f 88 77 3b 3f c3 6c ba be
       -1.2510387 1.4537954 0.73229265 -0.36411104
0002d0 5f 2c e4 bf 2e b7 82 3f 11 d5 59 bf 69 bc e9 3f
       -1.7826041 1.0212152 -0.8509074 1.8260623
0002e0 d9 36 fc 3e 74 cc 17 bf 64 3f 0b 3e 90 6a 8a 3f
       0.49260595 -0.59296346 0.135984 1.081377
0002f0 b0 8b ba 3d 2a 15 91 bf f6 fc 13 3f af 61 00 40
       0.091086745 -1.1334584 0.5780786 2.0059621
000300 a2 85 8c 3e eb 19 29 bf af 6a 65 bf 35 72 91 3d
       0.27445704 -0.6605517 -0.8961591 0.071018614
000310 4b e7 b0 be d3 10 54 3e c8 de 92 3f b8 34 fd 3e
       -0.34551463 0.20709543 1.1474237 0.49454284
000320 f4 21 83 3e e6 df 67 3f 68 08 df bf 85 8d cd 3f
       0.25611842 0.90576017 -1.742444 1.6058813
000330 00 31 7d 3f 90 b3 d3 bf 10 d4 e9 3e 85 42 eb be
       0.98902893 -1.6539173 0.45669603 -0.45949188
000340 f4 b9 9f bd 9f 91 05 40 10 2a 88 bf 5e 2b 35 3e
       -0.077991396 2.087013 -1.0637836 0.17692325
000350 c3 b2 16 3f a6 38 31 3f 4b e9 8c be 08 6d 0e bf
       0.5886652 0.69227064 -0.27521738 -0.5563512
000360 90 2c c0 bd e7 64 3c b9 fa 4a 62 bf 0c ff a0 bf
       -0.093834996 -0.00017966666 -0.88395655 -1.2577834
000370 5b 91 28 3f 4a 93 91 bf f3 4f eb 3e 41 59 15 40
       0.65846795 -1.1373074 0.45959434 2.3335726
000380 d7 c3 86 3e ae fc 67 3e fa cd 5a 3f 8c 55 c1 bd
       0.2632129 0.22654983 0.85470545 -0.09440145
000390 44 bd e8 3f c8 7b f6 be b5 5f 88 bf d3 d0 f0 3e
       1.8182759 -0.48141313 -1.0654207 0.4703432
0003a0 09 f0 b1 3f 09 f7 47 bf e8 a5 7e bf c5 45 b3 bf
       1.3901378 -0.7811132 -0.994719 -1.4005667
0003b0 96 95 15 be 6c 9b f9 bd 34 75 02 bf 99 23 84 be
       -0.14607844 -0.121878475 -0.5096009 -0.2580841
0003c0 49 7e e6 3d f1 68 73 3f 35 67 59 3f 1c 47 0f 3f
       0.11254556 0.95082 0.84923106 0.5596788
0003d0 35 6b 9b bf d3 0e 9e be e1 12 46 3e ed 9d 3a bf
       -1.2142092 -0.30870685 0.19343139 -0.72897226
0003e0 ec 27 2b 3f b0 85 3c bf 7d b6 c6 3f f2 ce bd be
       0.6685779 -0.7364149 1.5524441 -0.3707195
0003f0 b2 aa 0d 3e 53 db 86 3f bf fd 85 3e 1c ee 8b 3e
       0.13834646 1.0535682 0.26170155 0.273301

conv.0.weight f4 [32, 64, 11]
000000 86 72 b6 3d 55 55 30 bd cb 1a 0d be 94 0a 2a be
       0.08908562 -0.04305013 -0.13779752 -0.16605598
000010 d6 1d 07 3d c6 22 d6 3d 40 47 93 bd 16 8a a3 3e
       0.03298744 0.10455851 -0.07191324 0.3194129
000020 3a a9 84 3e cb 46 33 be e6 68 29 3e 03 8c f7 bd
       0.2591036 -0.17507474 0.16543922 -0.12087252
000030 d9 fb 5a 3d 38 bf 0a 3e b9 52 69 bc 1b 0c 55 bd
       0.053462837 0.13549507 -0.014240914 -0.052013498
000040 ba 9a 3c 3d ac c3 f2 3c ee 5b 50 bd a9 ce 62 3e
       0.046045996 0.02963432 -0.05086892 0.22149147
000050 ee 2e f4 3d b7 fb 50 3d 69 ca 9c bd 14 99 b9 3b
       0.11923014 0.051021304 -0.07655794 0.0056640003
000060 ab ba 7c 3e cf cc 98 3e 95 fa 22 3b 4e 40 0b 3e
       0.24680583 0.29843757 0.0024868597 0.13598749
000070 1b c6 3e 3d c7 3b 87 be 3c c5 a1 3a a9 c3 cc bd
       0.046575647 -0.26412794 0.0012342106 -0.09998257
000080 77 82 57 3e 1e f5 e1 bc d4 b6 8d be c3 b6 db 3d
       0.21045862 -0.027582701 -0.2767855 0.107282184
000090 1e f8 0a 3e aa ac 6f bd 73 75 3b be d7 88 6c 3d
       0.13571212 -0.058514275 -0.18306522 0.05774769
0000a0 5c 02 81 bd 39 7d eb bc ad 8a e6 bc e7 d8 eb bc
       -0.06299278 -0.028746234 -0.028142298 -0.02878995
0000b0 a2 01 5c 3e 30 ed 45 3e 35 f9 a4 bd 98 28 10 3d
       0.21484998 0.19328761 -0.08055345 0.035194963
0000c0 1a 5b a8 bd 4c 56 ef 3d 24 28 52 be a2 4f 1f be
       -0.08220501 0.11686382 -0.20523125 -0.15557721
0000d0 82 4e e1 3c 5a 96 8b 3d fa 2e 61 3b fc 17 58 3d
       0.027503256 0.06815787 0.0034360276 0.05275725
0000e0 81 32 09 be 89 8e 29 be d5 15 64 be 80 61 e2 bc
       -0.13398172 -0.16558279 -0.22273953 -0.027634382
0000f0 5e 42 13 bd b6 fa b0 bd a5 0b 17 bb 2a f2 42 3d
       -0.035951965 -0.08641569 -0.0023047712 0.047594227
000100 cc 1a 3f be 45 b2 11 be 92 76 a4 bd 16 6b e5 3c
       -0.18662566 -0.1422816 -0.08030428 0.028005164
000110 32 06 88 3e bd 29 0c 3d 6d 8b 60 3e 97 26 b4 3d
       0.26567227 0.034219492 0.21928187 0.08796423
000120 37 84 2e bc e0 11 db 3d 04 04 91 3b 69 d9 0d be
       -0.01065164 0.10696769 0.0044255275 -0.13852467
000130 1f 2c cd 3d 8c b2 11 bd 02 c9 91 3d 61 b0 d0 bd
       0.10018181 -0.035570666 0.07118417 -0.101898916
000140 4e c3 11 be 07 8c 42 be 2a 70 5f be 5f 5a 97 bd
       -0.14234659 -0.18998729 -0.21820131 -0.07390284
000150 2a d6 1e be 32 55 0a be 27 a1 5a 3e d3 63 91 bd
       -0.15511385 -0.13509062 0.21350537 -0.07099118
000160 66 8f 89 bd 22 b6 f3 bc 06 99 06 3e 79 8e c4 bb
       -0.06716804 -0.029749934 0.13144311 -0.0059984294
000170 d0 b9 d2 3d 18 5f 95 be b3 db 70 bd 3b 18 cf 3e
       0.10289347 -0.29174113 -0.05880327 0.40448174
000180 73 36 00 be e1 2f fe 3d 14 ac ba 3d 6a 34 d9 3d
       -0.1252077 0.12411476 0.091148525 0.106057
000190 4e 6c a4 be fd e1 a4 bd 25 ca 95 3c 84 1c 65 bd
       -0.3211388 -0.08050916 0.018284867 -0.055935398
0001a0 3f 2c 8f bd 2b 10 b6 bd c9 35 28 3d be 02 5a 3d
       -0.06990861 -0.088898025 0.04106692 0.05322527
0001b0 27 43 03 3d 74 7c b4 3d cd d4 22 bd 20 72 85 bb
       0.032046463 0.088128 -0.039753724 -0.0040724427
0001c0 29 0c 60 bd bf 01 12 be a1 22 44 3d bd b3 15 be
       -0.054699097 -0.14258479 0.047884587 -0.14619346
0001d0 b7 22 74 3e bf 5c 2f bc b5 5c 6b bd b0 9a 04 3d
       0.23841368 -0.010703265 -0.05746146 0.032374084
0001e0 12 d5 1e bd 79 ee 88 bd 66 85 cc 3d 03 c1 25 be
       -0.03877742 -0.0668611 0.09986381 -0.1618691
0001f0 8f 55 66 bd 0c b9 d1 3d 45 b0 4d bd 38 67 19 bd
       -0.05623394 0.10240373 -0.05021693 -0.037451953
000200 55 fc 3f be 7b 77 51 bd 4b 4c cc 3d 9c dc 24 bd
       -0.18748601 -0.051139336 0.09975489 -0.040249452
000210 79 76 c1 3d df 04 2a be 96 e8 84 bc 19 57 9f bc
       0.09446425 -0.1660342 -0.016224187 -0.019450711
000220 41 85 3b bd ed ca ae 3d 40 8d 04 3e 76 d6 0b be
       -0.045781378 0.08534799 0.12944508 -0.13656029
000230 dc 98 16 3e 48 30 dd bd cf 53 e5 be 51 97 64 be
       0.14706749 -0.108002245 -0.44790503 -0.22323348
000240 54 17 7c 3e ff 19 4f 3e d4 a8 36 3e eb 0f 8b 3e
       0.24618274 0.2022476 0.1783784 0.27160582
000250 6b 19 24 3e a0 0c c7 3d ce 33 0a be ea 62 c5 3d
       0.16025321 0.09719205 -0.13496324 0.09638007
000260 7d ac 6d bc d2 64 1a 3c 1d 82 48 bb 61 cf 67 be
       -0.014506456 0.0094234515 -0.0030595132 -0.22637703
000270 e9 80 da bc a8 a8 34 be 7f 0b de 3d 4f 54 2f 3e
       -0.026672797 -0.17642462 0.108420365 0.17122005
000280 dc b2 41 be 56 e6 22 bd f0 7d 53 bd 03 33 11 3d
       -0.18915886 -0.039770447 -0.051633775 0.03544904
000290 02 05 8e 3e 95 ad 16 bd 88 cd a7 3e 3f 1c 65 bd
       0.27738196 -0.036786634 0.32773995 -0.05593514
0002a0 5b 66 e2 bd be a9 88 3d 7b 4d b6 3d 36 6e 7c be
       -0.11054679 0.06673001 0.08901497 -0.24651417
0002b0 33 6f 16 bd 99 e3 23 be 13 9b f7 3c e1 ef 82 be
       -0.03672714 -0.1600479 0.030225312 -0.25573638
0002c0 fd eb 6f bd e0 49 11 3e e3 b0 c6 3d 8c c2 c9 3d
       -0.058574665 0.14188337 0.09701707 0.0985156
0002d0 53 ca be 3d 9c 89 09 be 5f 70 88 3e 74 ab 0f 3e
       0.09315934 -0.134314 0.26648232 0.14030248
0002e0 92 9f 02 bd 4b 44 16 bc 88 2e f1 bd b0 3c 1c 3e
       -0.03189046 -0.009171556 -0.11776453 0.15257525
0002f0 22 a5 2f 3d 64 8d 86 3c 04 e3 a9 bd 50 1c 23 3d
       0.042882092 0.016424842 -0.08295253 0.039821923
000300 09 67 0a 3e 7c 96 53 bd 93 14 06 be 45 2a 5b bd
       0.13515867 -0.051657185 -0.13093786 -0.05350711
000310 b6 56 a7 3b 5e 2e e8 bd 0e de 87 3b f2 8f d5 bc
       0.0051067723 -0.11336969 0.004146344 -0.026069615
000320 bc dc 3f 3e 4d 64 9c 3d 11 9e bd bd 88 71 f7 3d
       0.18736547 0.07636318 -0.092586644 0.12082201
000330 9f 42 b9 3c a0 3e 69 bc 5d ba cb 3d 07 8d 2c 3e
       0.022614775 -0.014236122 0.09947655 0.16850673
000340 3d fc a1 3b d4 39 6e bd 32 42 c1 3a 30 3d 02 be
       0.004943399 -0.058160618 0.0014744459 -0.12718654
000350 c4 67 24 be 15 29 40 be 8e c1 d9 be a5 49 01 3d
       -0.16055208 -0.18765672 -0.42530483 0.031564374
000360 b2 f4 62 3d 50 de 99 be 0e cf b8 bd d6 de 7e be
       0.05540914 -0.30052423 -0.090238675 -0.24889693
000370 8d b4 07 bd a0 8f 9f bd f8 c6 86 bd 7c 32 b7 bd
       -0.03313117 -0.07791066 -0.06580919 -0.08945176
000380 b8 81 4a 3d 02 a0 1c 3d 70 b9 90 bd 19 01 61 bd
       0.049440116 0.038238533 -0.070666194 -0.054932687
000390 85 62 f5 bd 3c 75 27 3d bb e5 2b bc 4d 3f 23 bd
       -0.11981682 0.040883288 -0.010491784 -0.03985529
0003a0 3f 53 b6 3e fc 54 b7 bd 87 9a 77 bd 90 2a e7 3d
       0.35610387 -0.08951756 -0.060450103 0.11287415
0003b0 af a2 1f 3e fa f0 3b bd 77 a4 fc bb 7e 4b 69 3d
       0.15589403 -0.04588411 -0.0077100354 0.05695676
0003c0 e2 a9 8c 3e 08 15 2c be 79 c8 47 3d 95 9d 3e bd
       0.2747336 -0.16804898 0.04877517 -0.046537
0003d0 91 fe c9 3c a3 fc 50 3e 03 80 b3 3d 72 86 1c 3d
       0.02465752 0.20408873 0.08764651 0.038214155
0003e0 25 98 88 3d 7c f5 0d be b3 e6 30 be 2f 67 ce bd
       0.06669644 -0.13863176 -0.17275505 -0.100782745
0003f0 8f ca c8 be 23 02 80 3b 12 d5 7e be 05 67 06 bd
       -0.3921704 0.0039065047 -0.24885967 -0.03281309

conv.0.bias f4 [32]
000000 d4 d2 57 be 61 ff 53 be 7a 19 ca be 4f cd 8a be
       -0.21076518 -0.20702888 -0.39472562 -0.27109763
000010 99 32 95 be ba ab 9c be 35 1e 9e be 97 75 81 be
       -0.29140165 -0.30599767 -0.3088242 -0.25285026
000020 b1 0b 48 be 42 ea f7 be 7b 6f 50 be a3 e2 46 be
       -0.1953571 -0.48420912 -0.20355026 -0.19422393
000030 f1 11 94 be f6 90 99 be 16 9b 9b be 0d 70 a0 be
       -0.28919938 -0.2999341 -0.3039176 -0.31335488
000040 c3 82 8c be cd 44 82 be 93 86 5a be 49 35 92 be
       -0.27443513 -0.25443116 -0.21340398 -0.28556278
000050 e8 b4 8c be 9e c5 b9 be cd 9b 6b be 79 11 92 be
       -0.2748177 -0.36283582 -0.23008652 -0.28528956
000060 ba 7d d9 be 27 ac c3 be 98 62 b0 be 64 9f 89 be
       -0.42478734 -0.3821728 -0.3445022 -0.26879418
000070 eb 40 9d be 96 55 a3 be 79 2a a6 be a6 d6 a4 be
       -0.3071359 -0.31901234 -0.3245428 -0.32195014

conv.2.weight f4 [128, 32, 7]
000000 38 35 62 bc 22 77 5d 3c cc bc 99 bd 45 2c 3a 3d
       -0.013806634 0.013517173 -0.07506713 0.045452375
000010 a4 33 2e be f6 0b 0e 3e 8b 78 16 be 15 18 16 bd
       -0.17011887 0.1387175 -0.14694421 -0.03664406
000020 c8 38 e4 bb 16 16 32 be 88 e7 28 3e fc b7 9b bd
       -0.0069647767 -0.17391238 0.16494572 -0.076034516
000030 51 0d b6 bd 5d 94 c2 3c 42 6b b2 3d 7f 8b 80 be
       -0.08889259 0.023752386 0.08711864 -0.25106427
000040 b5 5c 48 3d d1 b7 77 bd 9f d7 b7 3d 61 7c 33 be
       0.048916537 -0.060478035 0.08976673 -0.17527916
000050 fa e8 a8 3d cf 4e 6a be 1f dd 8f bd d1 e2 45 3e
       0.08247562 -0.22881626 -0.070245974 0.19324805
000060 07 1f 2a 3e c7 c1 08 be f4 e0 a8 3d 49 a9 c1 bd
       0.16613398 -0.1335517 0.082460314 -0.09456117
000070 d3 f9 86 be 43 14 2b bc df 52 32 bd c7 3c 82 3d
       -0.26362476 -0.0104418425 -0.043536063 0.063592486
000080 af a2 71 bd b2 17 c5 bd c0 0e a3 be 4e c6 9f bd
       -0.058993038 -0.0962366 -0.3184719 -0.078014955
000090 f8 9a 00 3e 1f 92 0b be fa 54 83 be da 37 4e be
       0.12559116 -0.1362996 -0.2565077 -0.20138493
0000a0 81 70 78 be 5d 2f 2a be 92 51 9e 3d 43 e3 c9 3b
       -0.24261667 -0.1661963 0.07730402 0.006161125
0000b0 34 87 52 bd c2 71 2a 3d 51 cf 76 3c 44 b1 a8 bd
       -0.05139847 0.041612394 0.0150640765 -0.08236936
0000c0 fb 04 54 be 8b 4b b6 bd 1d 0c 76 be 3e 97 12 bd
       -0.20705025 -0.089011274 -0.24028058 -0.035788767
0000d0 9a 00 ca be c0 e0 ef bd 18 06 3e be 08 ee 1f 3e
       -0.39453584 -0.117127895 -0.18557012 0.15618145
0000e0 c6 5e 4b 3e b4 21 74 be 77 25 5c 3e 97 b8 e0 3d
       0.19860372 -0.23840982 0.21498667 0.10972708
0000f0 bf 21 53 3e 19 e7 4c 3d 1f ec 2b 3e 0e 11 6f 3d
       0.20618342 0.05002508 0.16789292 0.058365874
000100 9d 9d 0f bd 77 33 7d be 0f f8 0d 3e 45 f9 08 be
       -0.03506242 -0.24726664 0.13864158 -0.13376339
000110 cd fe 02 3e e8 0a cc ba 41 18 ee 3d b0 ca dd bd
       0.12792511 -0.0015567215 0.1162572 -0.10829675
000120 70 8f ea 3d 68 a8 b3 be 6d b6 e1 be 93 39 10 bf
       0.1145314 -0.3508942 -0.44084492 -0.5633785
000130 bb 8e 93 3d ef ab 89 3c af c6 96 3d 9d 80 96 be
       0.07204958 0.016805617 0.07362115 -0.29395
000140 87 4b 8a bb 1b f7 c8 3d 02 9f 6c be 82 ee 3c be
       -0.0042204293 0.09812757 -0.23107532 -0.18450359
000150 57 d7 cd 3d f2 cb c9 bd c9 4d 5a bd 93 a1 5d be
       0.100508384 -0.098533526 -0.053296838 -0.21643667
000160 b1 b3 74 bd 47 3c a4 be 4e 1a 9a bd eb 03 60 3e
       -0.05974168 -0.32077238 -0.075245485 0.21876495
000170 dd 54 bc 3d b1 e5 6d 3d 17 6b 65 be c3 14 5c bd
       0.09195874 0.05808038 -0.22404133 -0.053730737
000180 29 bd 14 be 06 5a 77 be ee 5a 67 be 20 a7 66 bd
       -0.14525284 -0.24155435 -0.2259328 -0.056311727
000190 80 c7 a0 3d c9 4e 6c bd fb aa 4b bd 85 7b 98 3d
       0.078505516 -0.057692323 -0.049723607 0.074454345
0001a0 6a ed 3a 3d c1 6c 93 be 93 c1 79 bd 81 7f 42 3d
       0.045636572 -0.2879391 -0.060975622 0.04748488
0001b0 d0 0b 9c bd cb 00 c2 bd 24 7d cb bd 37 bc 14 be
       -0.076194406 -0.094728075 -0.09935978 -0.14524923
0001c0 71 5a 31 3e 91 c0 6c be cf bd 96 bd 24 79 b2 be
       0.17319657 -0.23120333 -0.07360422 -0.34858048
0001d0 47 9b 28 bd 12 4f d1 be b6 ad e1 bd c2 fb b4 bd
       -0.04116371 -0.40880638 -0.11019461 -0.088370815
0001e0 ec 87 73 be 7c ba 11 be 65 0d 0b be 4c d7 55 be
       -0.23782319 -0.14231294 -0.13579328 -0.2088291
0001f0 97 6e 34 be 3e 63 6c be 3f f8 18 be 16 23 8d be
       -0.17620312 -0.23084733 -0.14938448 -0.2756583
000200 74 d4 02 bf 77 da 8a be 23 83 b4 bc 40 8a 38 be
       -0.5110543 -0.271198 -0.022035187 -0.18021488
000210 92 c0 1b be 03 7d c2 3d 01 70 7f 3d 99 11 a7 3b
       -0.15210178 0.094965 0.062362675 0.0050985334
000220 89 22 29 3e 3b d4 ad bc c7 5f e3 be 01 10 81 be
       0.1651708 -0.021219363 -0.4440901 -0.25207523
000230 b8 92 c7 bd 89 01 e3 3d c6 da c9 bd 87 aa 04 be
       -0.09744781 0.11084277 -0.09856181 -0.12955676
000240 e1 bb 97 3e 2c bd 42 bd 98 31 c9 3b 9b f4 80 be
       0.29635528 -0.04754369 0.0061399452 -0.2518662
000250 1b f2 06 be cb bd 7d be 2a 5a ca bd 77 bf 29 3e
       -0.13178293 -0.24779432 -0.09880479 0.16576944
000260 2a bf 0c bd 2c 53 82 be ef 26 52 be f8 06 22 be
       -0.034361996 -0.2545408 -0.20522664 -0.15822971
000270 b5 f0 63 be db f5 44 3e b8 ea 75 bd 5c 9b fd bd
       -0.22259791 0.19234411 -0.0600383 -0.12383148
000280 aa 3a 2d be 40 4b 19 3d c2 d3 95 bd 7e d4 62 be
       -0.1691691 0.03742528 -0.0731578 -0.22151372
000290 6c 1c b3 be ca bc b3 bd 79 eb a8 be b6 9f a8 bd
       -0.34982622 -0.08776243 -0.3299215 -0.082335874
0002a0 05 db 37 3e 1c 90 40 be 63 ef 46 be 21 b9 da bc
       0.17954643 -0.18804973 -0.19427256 -0.026699604
0002b0 32 eb 76 be 44 c1 c2 bb fa d5 e4 3c 86 09 1c be
       -0.24113157 -0.005943449 0.027934063 -0.15238008
0002c0 f3 bd 14 be 87 23 03 be 2a c2 e7 3d 89 b8 ac bd
       -0.14525585 -0.12806521 0.11316331 -0.08433635
0002d0 e8 08 44 3d 73 18 ec 3d 2a 38 83 be a4 45 ac bd
       0.047860056 0.11528101 -0.25628787 -0.084117204
0002e0 69 3a 30 be fc 24 00 be 66 85 1d 3a 1b de 2a be
       -0.17209782 -0.12514108 0.00060089526 -0.16686289
0002f0 75 75 40 3b 98 61 fc bd c6 10 2a be 30 05 c7 3b
       0.0029366885 -0.12323302 -0.16607961 0.0060736164
000300 ba 42 c1 be 2c 7b 54 3e 67 68 3b 3e d0 31 91 bd
       -0.3774622 0.20750111 0.18301545 -0.07089579
000310 c9 4c cb 3d 3f 71 8d bd 42 27 91 be 79 d0 0a be
       0.09926755 -0.069063656 -0.28350264 -0.13556089
000320 ef c7 7b be 0f ab ce 3c a2 cb 6b 3c bc 91 d2 bd
       -0.24587987 0.025228051 0.014391812 -0.10281703
000330 5c 28 12 3d db cd 41 3e 84 6f 30 3d 28 51 bd be
       0.03568302 0.18926184 0.0430751 -0.3697598
000340 c0 02 30 3d 81 ff 56 be f7 ac 50 3e 60 bc ab 3d
       0.042971373 -0.20995905 0.20378481 0.08385539
000350 1f fd d4 3d 1e 31 37 3d 05 b4 4e be 4d 97 b8 bd
       0.103998415 0.044724576 -0.2018586 -0.09013233
000360 04 42 a3 be d6 6b 83 bb fc 75 0c 3e 2e f2 2f 3e
       -0.31886303 -0.004010658 0.13716882 0.17182228
000370 b6 39 eb bd 48 2c b7 bd 5f 97 06 3d 5d 8c 8d be
       -0.11485617 -0.08943993 0.032859202 -0.2764615
000380 6c e0 74 bd ac 18 00 3d a9 ae cb 3c 3c 45 15 bd
       -0.059784338 0.03127353 0.024863558 -0.03644298
000390 05 d0 fd bb d1 1f 3a bd ba 5c 2f 3c d9 67 a1 bd
       -0.007745745 -0.0454405 0.01070326 -0.078811355
0003a0 b9 b9 07 bc 45 5a a4 bd 01 89 4c bd 78 80 e7 bc
       -0.008284026 -0.0802503 -0.049935345 -0.0282595
0003b0 0f 20 9f bd a7 94 b7 bc 5d 06 a4 3c 2d eb 70 bd
       -0.077697866 -0.02240975 0.020022565 -0.05881803
0003c0 ae d7 29 3c 5d 60 ae bd 26 5b 94 bd e6 82 bc 3c
       0.010366363 -0.085144736 -0.07243948 0.023011636
0003d0 2d a1 db bc 3e ec 46 bd d2 8e a6 3c a6 d4 15 bd
       -0.026810253 -0.04856514 0.020331774 -0.03657975
0003e0 8c 59 d3 3c 4a 48 46 bd 63 d9 1e 3d dd 20 89 bd
       0.025799535 -0.048408784 0.038781535 -0.06695721
0003f0 c5 fe fd bc 89 df a3 bd 8f 45 58 bd e0 30 17 bd
       -0.031005273 -0.0800162 -0.05280071 -0.036911845

conv.2.bias f4 [128]
000000 bd de 83 3c c8 50 18 be 74 de 69 bc 35 d8 d3 3c
       0.01609742 -0.14874566 -0.014274228 0.025859931
000010 b7 5e 31 bc 9a aa 4a 3c 71 84 00 bd 47 3d 60 bd
       -0.010825804 0.012369776 -0.031376306 -0.05474594
000020 fd 3c 23 3c 18 bb d2 bd 81 85 a0 bc 26 0d 0c ba
       0.009963271 -0.102895916 -0.01959491 -0.00053425354
000030 33 c3 cc ba d7 e2 aa bd b2 d8 d1 3b 95 10 1f be
       -0.0015622139 -0.083440475 0.006404006 -0.1553367
000040 85 19 16 bd bc 05 74 bc 7e 88 0f bd c7 a8 44 bd
       -0.03664543 -0.014893945 -0.03504228 -0.04801252
000050 a2 ea 13 3d 47 37 91 bd 80 e3 9e bd fb 59 b6 3c
       0.036112435 -0.070906214 -0.07758236 0.022259703
000060 a4 f4 97 3a 9f 09 14 3d 1c e8 90 bd b5 e7 9e 3d
       0.0011593294 0.036141988 -0.07075521 0.07759038
000070 ac 0a 9f bd a4 41 59 bc 8d 40 3a bd ee 4a 95 bd
       -0.077657074 -0.013260279 -0.045471717 -0.07289682
000080 5b 92 63 bd cc 38 e0 bd b7 6f 6a bc 14 84 75 bc
       -0.055559497 -0.10948333 -0.014308861 -0.014985103
000090 6d d7 20 bd d0 a6 dd bd 59 f5 b7 bd 69 39 e0 3c
       -0.039267946 -0.108228326 -0.08982343 0.027371125
0000a0 3b dc 1d bd e1 1d 63 bd ca 01 a2 bc ad 4b d3 bd
       -0.038540106 -0.055448417 -0.019776244 -0.103171684
0000b0 dc cb 8a 3d 32 8c ac 3b 12 1c 8d ba b4 6c 51 3d
       0.06777164 0.005265736 -0.0010765812 0.051129058
0000c0 94 ea b3 bd c7 52 42 3c 6d 3e 24 3b ab 38 9a 3d
       -0.087849766 0.011860556 0.0025061623 0.0753034
0000d0 8f 77 48 bd 9c aa 0a bd 79 cf 9b bd a7 2e da bd
       -0.048942145 -0.033854112 -0.07607932 -0.106534295
0000e0 a3 38 1e bd 2e 43 3b 3d d2 6a 3d bd c9 e4 80 bd
       -0.03862823 0.045718364 -0.04624445 -0.06293637
0000f0 75 a0 a5 3c ac 04 c7 bc 48 7d 6e 3d 34 db a7 3d
       0.020218113 -0.02429422 0.058224946 0.081961066
000100 4a 37 cc bc 60 39 35 3d f6 aa 2c 3d d3 6e a6 bc
       -0.024928708 0.04424417 0.04215523 -0.020316517
000110 8d fa c7 bc 4b ce f6 bc 1c b8 a3 3d 3c ee d5 bd
       -0.024411464 -0.030127665 0.079941005 -0.1044583
000120 86 1a 82 3d f4 75 ed 3c 35 e4 d7 bd 46 4f fa bb
       0.06352715 0.028986908 -0.10541574 -0.0076388447
000130 39 3e 47 bd 26 16 f8 bd 9d 55 c1 bc e8 0e 06 be
       -0.048643325 -0.121135995 -0.023600394 -0.13091624
000140 7a 8f b7 bc b7 c7 81 bd 80 f8 ba 3d 56 e4 26 bc
       -0.022407282 -0.06336921 0.09129429 -0.0101862755
000150 ee 1e c0 bd cd 38 5b bd e2 ef 06 bd b7 e9 1d bd
       -0.09380899 -0.053520966 -0.032943614 -0.038552966
000160 04 12 50 3c 79 ab 80 bd 3d dc b5 3a 1a e4 c8 bd
       0.012699608 -0.06282706 0.001387484 -0.09809132
000170 b5 3e 6f bd e5 c7 67 3d 41 a1 bb bc 08 c9 06 3b
       -0.05840941 0.05658712 -0.02290404 0.0020566601
000180 a1 1b 68 3c d8 d4 fd bc 3c 35 62 bd 27 22 49 bd
       0.0141667435 -0.03098528 -0.05522655 -0.049104836
000190 62 01 24 ba 46 56 e3 bd 2d a4 2d bd 41 c1 1e bc
       -0.00062563096 -0.1110044 -0.0423929 -0.00968963
0001a0 ff 67 43 3d e3 3f 9c bd 03 18 71 bd e6 dd d0 3a
       0.0477066 -0.07629373 -0.05886079 0.0015935272
0001b0 57 83 b9 bc 45 7d c7 bc cb 49 13 bc c9 35 1f be
       -0.022645636 -0.024351725 -0.008989762 -0.15547861
0001c0 9d 8a 96 3b 56 e8 42 bd e4 0f e3 bc f5 78 e1 bc
       0.0045941607 -0.047584854 -0.027717538 -0.027523497
0001d0 55 29 9f bd f6 ea 28 be bb 15 a6 3c 60 be 2c be
       -0.07771555 -0.1649588 0.020274034 -0.16869497
0001e0 12 df 13 bd 1f 31 8c 3d 2b 46 c4 bb cb 86 4d bc
       -0.03610141 0.068453066 -0.00598981 -0.012544344
0001f0 8a 43 5d bc 7f 76 8e bd 46 d4 17 3d aa bd 24 3c
       -0.013504872 -0.06956195 0.037067674 0.010054985

conv.4.weight f4 [64, 128, 5]
000000 2b 2a 03 be d5 a0 e1 bc 2c 1d 69 bd 7c 19 3f ba
       -0.12809055 -0.027542511 -0.056912586 -0.0007289869
000010 47 49 9c 3d 4e ac 27 bd d5 33 87 3b 60 c4 c4 bc
       0.07631164 -0.040935807 0.004126052 -0.02401942
000020 f5 33 8a bc 6e 81 a8 3c a0 78 06 bc 95 0a d8 3a
       -0.016870478 0.02056953 -0.00820747 0.0016482646
000030 31 2c fb bc 22 e6 87 bb be 0c 1a bd 8e 99 7d be
       -0.03066072 -0.004147307 -0.03760981 -0.24765608
000040 98 25 31 be cd 1b 3b be 52 8d 72 3e 8f 7f 7d 3e
       -0.17299497 -0.18272324 0.23686722 0.24755691
000050 e1 46 18 bc f5 47 2b bd 6b 33 9f 3c a9 d9 1e bd
       -0.009294243 -0.04181667 0.019433698 -0.038781796
000060 a1 19 8c bc 25 83 47 be 90 13 19 be d0 1a 1f 3e
       -0.017102065 -0.19483621 -0.14948869 0.15537572
000070 17 26 99 bd 4c 27 bd bd 01 a9 80 3e b0 ef 43 be
       -0.07477968 -0.09236011 0.2512894 -0.19134402
000080 71 66 f8 3d f8 db f3 3d 85 de 53 3d 3c 36 d5 3d
       0.12128914 0.1190719 0.051725883 0.10410735
000090 ba 87 83 3d c3 76 0b 3d 6f a1 ec bd b2 95 0f 3d
       0.06422372 0.034048807 -0.115542285 0.03505487
0000a0 d0 f6 ad bd ff f4 95 be dc da c8 bc 59 23 0c be
       -0.084943414 -0.2928848 -0.024518423 -0.13685359
0000b0 8b 5d cf bd b8 74 55 bc 88 49 b2 bb 31 d4 ec 3b
       -0.10125264 -0.013028316 -0.0054408945 0.0072274436
0000c0 65 6f 36 3d f7 6c eb bb 91 02 e4 bb 78 e5 aa 3c
       0.044539828 -0.0071846205 -0.0069583138 0.020861372
0000d0 d8 26 20 bd bb 9b bc 3c 63 59 31 bd 6e 1a 49 3b
       -0.039099544 0.023023477 -0.043298136 0.003068592
0000e0 0e 2f 07 ba 47 0e 82 3c 3c fe c9 bc 06 3c 3a bd
       -0.0005156853 0.015875949 -0.024657361 -0.0454674
0000f0 85 65 02 3a b1 f8 cb bd 23 ed 69 bd 27 97 03 be
       0.0004974234 -0.099595435 -0.057110917 -0.12850629
000100 82 28 39 bd aa bc 16 3e 0b 95 9d bc 5c fa 17 3d
       -0.045204647 0.14720407 -0.019236108 0.037103996
000110 8c 1d 19 3d 19 b6 d5 3d f5 19 ec 3c 1a 6a bd bc
       0.037381694 0.10435123 0.028820971 -0.023121882
000120 f6 4d 8b 3c cc d1 9d 3d ed b4 e8 bd d7 20 a0 3d
       0.017004948 0.07706031 -0.11362634 0.07818764
000130 6c 35 0d bd 0a 18 1d 3e 79 3e 2e be 87 f3 49 3e
       -0.034474775 0.15341201 -0.17016019 0.19721805
000140 e4 07 60 be 22 6a 74 be dd 17 a4 3d bf 1e 75 3d
       -0.2187801 -0.23868611 0.08012364 0.059843775
000150 3a 03 12 3b a4 ca df bc f3 f4 c7 3c a4 05 a4 3c
       0.0022279755 -0.027318306 0.024408793 0.02002222
000160 87 90 ed bb b5 4e ed bb ff 05 f7 bb d9 ff a0 bc
       -0.007249895 -0.0072420486 -0.0075385566 -0.019653248
000170 59 6a 3b 3c 52 c5 8d 3b 1e b0 9c bc cc 23 84 bc
       0.0114389295 0.004326501 -0.019126948 -0.01613035
000180 82 38 22 bb f6 fd 9b 3c 80 a2 92 3b 72 26 85 bb
       -0.002475292 0.019041996 0.004474938 -0.004063421
000190 9c 85 5d be 8f a3 0e be 9a 6c e6 bd 9c 76 51 be
       -0.21632999 -0.1392958 -0.11251183 -0.20455402
0001a0 a1 db c5 bd 55 b6 be 3c dd 26 42 bd c5 36 7c bd
       -0.096610315 0.023280302 -0.047400344 -0.06157567
0001b0 1b c8 2b bc 7f 29 52 bd e8 c3 be 3c b3 5c 5c bb
       -0.010484721 -0.051309105 0.023286775 -0.003362459
0001c0 57 e7 20 bc 08 8a af bb 1b 01 88 bd b8 90 80 3c
       -0.009820781 -0.005357031 -0.06640836 0.015694007
0001d0 53 29 4b be 36 90 6c 3d a6 6e 9d be 8a c4 97 3e
       -0.19839983 0.057754718 -0.3074848 0.29642135
0001e0 38 30 22 be b0 a2 c1 be 44 35 1c be 70 53 9d 3d
       -0.15838706 -0.37819433 -0.15254694 0.0768193
0001f0 89 3a 11 bd 5e 0d 07 3d fa a9 2f 3e 21 09 5d 3c
       -0.035456214 0.032971732 0.17154685 0.013490946
000200 83 da 62 bd de 29 3f be b5 e2 03 bc d2 69 58 bc
       -0.05538417 -0.18668315 -0.008049657 -0.013208823
000210 1f f5 eb 3c e1 36 06 bc c6 8a cf 3c df 6e ca 3d
       0.028803406 -0.008191795 0.025334727 0.09884428
000220 37 15 33 be c4 ea 0f 3e 5f dd 09 3d de 3d 2f 3e
       -0.17488562 0.140544 0.03365838 0.17113444
000230 75 7a a8 bb b4 b5 bd bc 68 0f e5 3c a8 f5 39 bd
       -0.005141551 -0.023157932 0.027961448 -0.04540029
000240 f8 ea 0a bd 36 0e dc 3c bc 3a 4d be e0 9f 49 be
       -0.03391549 0.026862245 -0.20041937 -0.19689894
000250 d3 d9 61 3d a5 da 16 3e 06 df a7 3c 30 cc 18 be
       0.055139374 0.14731844 0.020492088 -0.14921641
000260 31 67 82 bd 69 8e 87 be af 96 31 be 6d 53 66 bb
       -0.063673384 -0.26475838 -0.17342637 -0.003514494
000270 d6 36 a6 3c ef 0b 66 bc 2f 0d 89 3b 91 3b 43 3d
       0.02028982 -0.014040931 0.00418248 0.04766423
000280 14 17 9e bd 26 65 de 3c ed 16 2d bd 6d d0 3f 3e
       -0.077192456 0.02714784 -0.04225819 0.18731852
000290 52 b7 dc bd 69 e8 62 bc c0 e7 1c 3c 80 d0 a4 3d
       -0.10777153 -0.013849356 0.009576738 0.08047581
0002a0 66 14 35 bd 86 e5 b7 bd 20 13 ca bd 61 bb 8c 3d
       -0.044208907 -0.08979325 -0.09866929 0.06871677
0002b0 aa f1 5f 3c 98 77 17 3d c9 bb 33 3c 61 1c 8d 3c
       0.013668457 0.036979288 0.010970064 0.017225446
0002c0 e0 98 ba bc 6d e4 51 bd b1 49 07 3d b4 d3 98 3c
       -0.022777975 -0.051243234 0.033029262 0.018655635
0002d0 ae cd 78 3a 4b bc 63 bd b5 35 a5 3d 9b 2e c1 3c
       0.0009491098 -0.055599492 0.080668844 0.023581794
0002e0 b7 af 00 bc bf 83 12 3d 88 e3 88 3d 86 af d3 3d
       -0.007854394 0.035770174 0.06684023 0.10336213
0002f0 54 16 f5 3d 94 b5 be bd ac ac 93 3c f3 65 6b 3c
       0.119671494 -0.09311977 0.018026672 0.014367568
000300 6b 0d 0e 3c 73 5b da bc fe 82 97 3c 5b 52 b2 3d
       0.008670191 -0.026654935 0.01849508 0.08707114
000310 c5 d0 37 be 24 94 85 3d 4d b7 81 3d d8 e7 d1 3d
       -0.17950733 0.06522396 0.0633379 0.10249299
000320 6c f8 7b bc ef 9a f1 bb 6c 4d 9d 3c 8c f9 1a 3d
       -0.015379053 -0.007373206 0.019201957 0.037835643
000330 b2 6c a6 3c 22 47 0a bd 3e a6 6e 3d eb ab de bc
       0.020315502 -0.033759244 0.05826401 -0.027181586
000340 5a 3d 95 3d 7a 23 13 3d c6 09 04 be 50 cf f3 bd
       0.072870925 0.035922505 -0.12894353 -0.11904776
000350 92 e2 17 bc 3e 15 ef 3d 68 d0 28 3d aa 62 e8 bd
       -0.009270327 0.116739735 0.041214377 -0.11346944
000360 e9 74 b4 bd b3 0a 3e bd 6c dc 65 3d 29 b5 99 3c
       -0.08811361 -0.046396922 0.056118414 0.018763142
000370 67 d7 8c 3d 07 61 a5 bb 8d 5e 4d be 9b 1a 86 bd
       0.06877022 -0.005046967 -0.200556 -0.06548043
000380 19 34 1e 3e ee b7 28 be fd 07 d8 bd 14 27 11 3e
       0.15449561 -0.16476414 -0.10548399 0.14175063
000390 2a 5b a3 3d 52 68 3b 3e d0 91 ed bc 22 cc 75 3d
       0.079763725 0.18301514 -0.029000193 0.06000913
0003a0 ae e7 de bc ac 46 10 be 1a 73 8a bc be 83 5a bd
       -0.027210083 -0.14089459 -0.016900588 -0.053348295
0003b0 5b ba 09 be 12 20 8e bd 00 60 eb bc d9 23 0b 3e
       -0.13449995 -0.06939711 -0.0287323 0.13587894
0003c0 f3 47 b4 bd 20 72 c3 bc f5 88 d3 bc 05 b9 07 3d
       -0.08802786 -0.02385813 -0.025822142 0.033135433
0003d0 d5 47 d8 bb cf 3c 00 3d ff 92 23 3d 82 67 df bc
       -0.00660036 0.03130799 0.03993511 -0.027271036
0003e0 ff 14 7f 3c a3 f1 de 3d a6 d5 21 3d 25 ea 31 be
       0.015568971 0.10885932 0.03951039 -0.17374475
0003f0 d9 a5 85 bd 6b 03 8d be 94 c4 bd 3d ec 11 80 3d
       -0.065257736 -0.2754167 0.0926601 0.06253418

conv.4.bias f4 [64]
000000 27 8d 5b be 43 c6 8d be 71 d0 76 be cf b5 3e be
       -0.21440564 -0.27690324 -0.24102952 -0.18624042
000010 3c 35 73 be ff 26 08 be f7 12 9e be 0b 65 d8 bd
       -0.23750776 -0.13296126 -0.30873844 -0.105661474
000020 60 89 9c be b4 b6 b8 bd fe f2 a0 be 98 3e dc be
       -0.3057356 -0.09019223 -0.31435388 -0.43016505
000030 50 d4 a6 be 6e 92 98 be ed 42 6a be 25 d9 8b bb
       -0.32583857 -0.29799217 -0.22877093 -0.004267829
000040 4e 04 c5 be 68 a6 f0 be 57 06 af be ce be 9a be
       -0.38479847 -0.47001958 -0.34184524 -0.30223697
000050 98 1a 92 bd b8 5d b3 be bd b4 f2 bd 79 0f c0 be
       -0.071339786 -0.3503244 -0.11850879 -0.37511805
000060 e5 a2 66 be 44 47 e9 bd db 3e 79 be f0 d2 39 be
       -0.22523077 -0.11390546 -0.24340384 -0.18146873
000070 0c d3 94 be 7f 60 77 3e 1a cb c6 be 26 1c 2a be
       -0.29067266 0.24157904 -0.3882683 -0.166123
000080 b2 84 72 be c2 3b e3 be 09 69 eb be 7d 95 bd be
       -0.23683432 -0.4438153 -0.45978573 -0.37028113
000090 1e 89 40 3e 5e aa ce be a8 ae 97 be 73 f2 e9 3c
       0.18802306 -0.40364355 -0.2962544 0.028557992
0000a0 d3 ad 89 be bb 01 bf be 84 ed 0b bf 94 2d de bc
       -0.2689043 -0.37306008 -0.54659295 -0.027121343
0000b0 53 ba 1d 3e da 6a a3 be 84 b6 8a be 8e 55 08 bf
       0.15403108 -0.3191746 -0.27092373 -0.53255546
0000c0 b7 6c c3 be 7e d8 f8 3c e5 e7 b4 bd a4 8d c6 be
       -0.3816888 0.030376669 -0.08833293 -0.38779938
0000d0 d5 6d e0 be d9 18 b7 be 3e ff 9d be 3a 91 c8 be
       -0.43833795 -0.35761145 -0.30858797 -0.391733
0000e0 a2 e6 c4 be 8d 49 b0 be 01 8f 69 be d5 9a fe bd
       -0.3845721 -0.34431115 -0.22808458 -0.124318756
0000f0 cc f1 90 be 74 9b ce be 2c 9f c9 be 64 7b 82 be
       -0.28309476 -0.40352976 -0.3937925 -0.25484765

conv.6.weight f4 [32, 64, 7]
000000 b1 c3 20 be 9e 61 45 bc 49 6a ba 3d d8 c3 01 3e
       -0.1569965 -0.0120471995 0.091023035 0.12672365
000010 60 f5 e3 3d 43 b6 12 bd c9 14 9e bc ce a3 8d bd
       0.11130786 -0.03581835 -0.01929702 -0.06916009
000020 7c 09 ae bd 3f 84 07 be d8 56 8c 3d ab 01 18 be
       -0.08497903 -0.13234042 0.06852502 -0.14844386
000030 24 4d c4 bd e6 6e f8 3d 42 0c 73 3e b3 d1 22 3e
       -0.09585026 0.12130527 0.23735145 0.15900306
000040 49 c9 d8 bd 70 38 2a bd 94 36 24 be 82 97 85 3c
       -0.10585267 -0.04155773 -0.16036445 0.016307596
000050 22 f9 2e bc 68 fc bd bc 87 85 b4 bc 77 84 6e 3d
       -0.010679515 -0.023191646 -0.022036327 0.058231797
000060 2e 71 1b 3d fe 82 be bd 73 62 3a 3d 20 ad f5 3b
       0.037949733 -0.093023285 0.045504045 0.0074974447
000070 a1 ca 9e bd b6 b1 5a bd 7a e4 2f be b5 e5 27 bc
       -0.07753492 -0.053392135 -0.17177 -0.0102476375
000080 2f 89 42 3e 4b 4b 20 bc e4 52 11 bd 9b 22 67 3d
       0.18997644 -0.009783576 -0.03547944 0.056429487
000090 67 d6 24 3e 23 f0 5a 3d 94 d0 27 3e b1 fe 89 be
       0.16097413 0.05345167 0.1638816 -0.26952127
0000a0 c1 a7 f7 ba 71 b7 43 3d 57 59 13 bd f3 15 24 3e
       -0.0018894599 0.047782365 -0.035973873 0.16023998
0000b0 0b 18 31 3e 31 e7 32 3c 5f bc 8a 3e e8 d5 d9 3d
       0.17294328 0.010919378 0.2709684 0.106365025
0000c0 83 7d 74 3e 5a 30 53 bd f9 eb e9 bc 07 2e 0b be
       0.23876004 -0.051559784 -0.028554903 -0.13591777
0000d0 0d 58 61 be f1 78 6b bc 07 51 19 bd c9 4f d3 bd
       -0.22006245 -0.014372096 -0.03743079 -0.10317952
0000e0 c1 7b 45 bb 00 76 43 be af ed 6f bd b5 90 49 3e
       -0.0030133578 -0.19087982 -0.058576282 0.19684108
0000f0 b1 5c 15 be 90 3d 94 3d 33 2c 24 3e 69 f0 6b 3d
       -0.1458614 0.072383046 0.16032486 0.05760232
000100 32 3f 6b bd f7 b4 dd bc 0f db 5d bd 59 80 00 3e
       -0.057433315 -0.02706383 -0.05416399 0.12548961
000110 0a 4e 30 bd e6 6f c8 bd 8f 51 1b 3c a5 15 a3 3d
       -0.043043174 -0.09786968 0.009479894 0.07963113
000120 1e 15 81 bc ca a0 68 3c 2d bc 9e 3d a7 12 b5 3d
       -0.01575714 0.014198491 0.077507354 0.08841448
000130 a3 36 6e bc 68 99 0a be 35 86 bb 3c 29 d8 b2 3c
       -0.014539394 -0.13535082 0.022891143 0.021831589
000140 df 34 72 bd 1f ac 40 3c e5 52 e4 bd 3a 77 08 3d
       -0.059132453 0.011759787 -0.111486234 0.03331683
000150 f5 5a 3a 3c 98 6c d9 bd eb 7a 76 bc 00 fd 05 be
       0.011374225 -0.10616416 -0.015043954 -0.13084793
000160 1c db 64 bd 86 cb 40 bb c0 03 67 bc 5e 13 e3 bd
       -0.05587302 -0.0029418184 -0.014100015 -0.110876784
000170 e0 89 13 be d9 90 c8 bd c9 d4 0a be f6 8d 8a bc
       -0.14408064 -0.097932525 -0.13557734 -0.016913395
000180 56 ec 0b be 9a 78 06 bd bf e1 12 3d 2f f2 88 3e
       -0.13664374 -0.03282986 0.03585982 0.2674727
000190 7c c0 66 3d 4b 51 b0 3c 07 7b 37 be 93 0f 0e 3e
       0.05633591 0.021523139 -0.17918025 0.13873129
0001a0 33 b0 56 bd 8f 0e 86 3e 62 47 16 3e 48 2b 86 bc
       -0.05241413 0.26182982 0.14675668 -0.01637806
0001b0 28 92 56 be 7f eb ae 3b 32 58 8b 3e a9 89 84 3d
       -0.20954192 0.005338132 0.27215725 0.06471569
0001c0 d4 e1 3f 3d fb 3b 70 bd 64 d4 09 3d 18 a9 1c 3e
       0.046846226 -0.05865095 0.033649817 0.15298879
0001d0 78 b4 26 3e 43 59 be 3c 94 42 f6 3d 39 9d 16 3e
       0.16279781 0.023235923 0.120244175 0.14708413
0001e0 05 74 84 3e ea 09 c7 3c 12 c7 bf 3d 46 ac 2f 3d
       0.25869766 0.02429672 0.093641415 0.042888902
0001f0 14 e9 12 3e b7 9f 9c 3e 4b ce 9f bd f9 cb fd bd
       0.14346725 0.30590603 -0.07803019 -0.1239242
000200 11 aa 61 bd 71 27 ad 3c b2 b5 35 3e cd 0c e2 3d
       -0.05509383 0.021136971 0.17745093 0.11037598
000210 f9 8d 53 be 9b eb 0e be 95 38 94 be dd fb 02 be
       -0.20659627 -0.13957064 -0.2894942 -0.1279139
000220 a8 1d 0a be 8a 90 91 ba d1 8c ed bc 7a 9f 4e bc
       -0.13487875 -0.0011105698 -0.02899781 -0.012611264
000230 61 3b 10 3e 55 a0 8c 3e c4 42 1d 3e 75 c5 09 3c
       0.14085151 0.27466074 0.153575 0.008408894
000240 52 5c 10 bd 51 be 56 3d d7 a6 15 3e dd 4f 95 3a
       -0.035244294 0.052427594 0.14614426 0.0011391599
000250 18 53 5a bd 81 5d c6 bc 21 d4 cc 3d 86 a7 8f 3d
       -0.0533019 -0.024214508 0.10001398 0.070143744
000260 2e 46 2e be 99 11 c2 bd 4d ae 19 bd 84 c3 f1 3d
       -0.17018959 -0.09476013 -0.03751974 0.1180487
000270 e5 ae 3d be 90 41 96 bd 98 49 d0 3d 2d e4 ef 3c
       -0.18523748 -0.07336724 0.10170287 0.029283607
000280 30 32 5c be 48 f9 4b 3d 54 4c 48 3b 78 8c 7e 3d
       -0.2150352 0.04979828 0.0030563073 0.06214568
000290 4a 7e 1a 3e 7a 9d 5f 3e 14 ba 41 3d 6c 74 8d 3d
       0.15087238 0.21837416 0.0472966 0.06906971
0002a0 d6 7b 42 bd 94 fe f0 3d d6 f1 09 be 96 ab b6 bd
       -0.04748138 0.11767307 -0.1347116 -0.08919446
0002b0 ca 5f 1a be 9a 36 04 3e c9 64 4a bd 4a ff e7 3b
       -0.15075603 0.12911454 -0.049412522 0.0070799934
0002c0 fe b1 53 3d bd e1 68 be 79 12 46 be b6 2f 73 ba
       0.05168342 -0.22742362 -0.19342984 -0.0009276824
0002d0 5b d2 bc 3d da be 16 3e 71 66 a7 bc 85 a4 65 bd
       0.092198096 0.14721242 -0.02043459 -0.0560651
0002e0 f4 b6 50 3e 06 05 78 3d c6 6f 1e 3d 5f 59 c4 3d
       0.20382291 0.060551666 0.038680814 0.09587359
0002f0 05 a4 9c 3c 39 77 15 bc 7e 10 cb bc 57 09 69 bd
       0.01912118 -0.009122663 -0.024788138 -0.056893673
000300 28 ad 5e bd 60 2b 4b bd 72 ca 22 3e 74 59 cb 3d
       -0.054364353 -0.049601912 0.1589754 0.09929171
000310 14 61 cb bd a5 69 76 bd b3 bb e4 bd 89 e1 f8 3b
       -0.099306256 -0.060159344 -0.11168613 0.0075952453
000320 55 ee 68 3d 65 ee 42 bc 00 8f 9e 3c 7a 8e 9f 3d
       0.056867916 -0.011897658 0.019355297 0.07790847
000330 59 39 f5 bd b9 06 76 be 76 0e ad bd b1 37 64 be
       -0.11973829 -0.24026002 -0.08450024 -0.2228687
000340 25 2f 9f be 2c e0 c2 bc 52 45 95 bd ae 60 c7 3c
       -0.31090656 -0.023788534 -0.072886124 0.024338093
000350 cf 09 96 3d 27 75 38 3d c2 eb 99 3a 79 e2 55 bd
       0.073260896 0.0450336 0.0011743235 -0.052217934
000360 13 df 97 bc 9a 02 17 be ff 39 8c 3d a9 4e 28 be
       -0.018538987 -0.14747086 0.068469994 -0.16436256
000370 6e a9 1f be 9f e3 24 bb 07 f3 f4 bd 5f 4f 02 be
       -0.15591976 -0.0025160087 -0.11960416 -0.1272559
000380 fb 55 3e 3d e1 f6 c5 3d ef 54 2e 3d 08 40 13 bd
       0.046468716 0.09666229 0.042561468 -0.035949737
000390 4a 26 13 bd dd 2f cc 3e f1 5b 35 3e 0d bb 04 be
       -0.035925187 0.39880267 0.17710854 -0.12961979
0003a0 07 83 b8 3d 98 25 18 be e6 33 eb bd 86 35 86 bd
       0.090093665 -0.14858091 -0.11484508 -0.065531775
0003b0 96 98 b9 3c 0f 24 dd bc ec fe 97 bd bc 4a 4d bd
       0.022655766 -0.026994733 -0.07421669 -0.0501201
0003c0 99 b5 28 be f9 51 a4 3d 5f 6d 90 3d 79 b3 b3 3d
       -0.16475524 0.080234475 0.07052111 0.08774466
0003d0 ab 74 dc bd ff 9c 20 bd 1a 50 21 bb 7d 51 17 bd
       -0.1076444 -0.039212223 -0.0024614395 -0.036942948
0003e0 3d 55 26 be cf 5e 27 3e d8 23 1e 3e 90 fe 03 be
       -0.16243453 0.1634476 0.15443361 -0.12890077
0003f0 39 88 9f bc 13 b4 9a 3d 92 60 d6 bd a0 ff e9 bd
       -0.019474136 0.07553878 -0.10467638 -0.1142571

conv.6.bias f4 [32]
000000 03 f5 5f be 3d d5 36 be 43 c9 b9 bd 9b be 58 be
       -0.21870808 -0.17854781 -0.09071591 -0.2116646
000010 50 75 b7 bd 79 94 09 be 7f 79 46 be 0f 9a ea bc
       -0.089579225 -0.13435544 -0.19382285 -0.028637914
000020 43 00 90 be 68 78 88 3e 95 26 aa be 76 17 01 be
       -0.281252 0.26654363 -0.3323256 -0.12606606
000030 bb 0a ef bd c9 3d d8 bd 92 3b ca bd 45 db 05 be
       -0.116719685 -0.105586596 -0.098746434 -0.13071926
000040 cd 84 ba bd 21 38 3b be d7 c9 c8 bd fe 1e 33 be
       -0.09107361 -0.1828313 -0.09804123 -0.17492291
000050 08 05 fc 3d c8 3f ac 3e 2a 9d a7 bd 79 f9 62 3e
       0.12305647 0.3364241 -0.081842735 0.22165479
000060 25 5a c3 bd 13 51 1c be c3 e5 a9 3e 3d 2e c7 bd
       -0.09538678 -0.15265302 0.33183107 -0.09725616
000070 cb c6 d2 bd a2 07 a6 3e 55 bc 95 be d3 a1 3c be
       -0.10291823 0.32427698 -0.29245248 -0.18421106

conv.8.weight f4 [32, 32, 11]
000000 ff bb e6 3d 1d 6b 2d 3e 5b f0 b8 3c b5 da de 3b
       0.11266326 0.16935392 0.022575548 0.0068009743
000010 c2 94 34 3e 16 6e 72 3e 20 fc 07 3e 2a 89 76 bd
       0.17634872 0.23674807 0.13279772 -0.060189404
000020 9b f4 09 3d 07 b7 07 3d 53 03 4d 3e 16 50 4b bd
       0.03368054 0.033133533 0.200208 -0.049636923
000030 e0 07 04 3e 4e a8 13 be d1 fc b4 bc 3c a1 af bd
       0.12893629 -0.14419672 -0.022093209 -0.08575675
000040 62 98 23 bd 13 3e 95 3c 48 f3 71 3d 19 ff c9 ba
       -0.039940245 0.018218076 0.0590699 -0.0015411108
000050 9e 3c 10 bd 40 68 d8 3c 73 be 38 3d 2b 2e 02 3d
       -0.03521406 0.026416898 0.0451035 0.03178231
000060 9c ab 41 3d b6 09 5f 3d d3 70 a9 3c 98 72 c6 ba
       0.0472828 0.05445262 0.020683682 -0.0015140353
000070 41 e2 48 3d c4 5b 5a 3d 7c bb 0a bd 44 44 a8 bc
       0.049043898 0.05331017 -0.033870205 -0.020540364
000080 dc 30 e3 3c aa 07 fc 3d a3 94 7e bc f2 ab 90 bd
       0.027733259 0.12306149 -0.015538367 -0.07064046
000090 58 5c 8c 3c 53 28 25 3c b8 8a 02 bd 08 59 fe bc
       0.017133877 0.010080415 -0.031870574 -0.031048313
0000a0 38 af 7f 3c 92 4f 0d 3b a2 dd 36 3d eb e5 a5 3d
       0.01560574 0.002156232 0.04464496 0.08100494
0000b0 ae a4 33 3d 08 02 0a 3e 76 6e 6c 3d fd e9 b1 bd
       0.043858223 0.13477337 0.05772253 -0.08687208
0000c0 a8 f2 9b bd 69 7b 48 3e dc 61 04 3d ee 76 88 3d
       -0.076146424 0.19578327 0.03231989 0.06663309
0000d0 14 30 4c bd 45 4e 2b bd 95 42 38 3d c4 7b 8c bd
       -0.04985054 -0.04182269 0.044985373 -0.06859544
0000e0 24 65 ec bc 7d dd b0 bd b9 bc c0 ba c9 62 7b bd
       -0.028856821 -0.086359955 -0.0014704681 -0.061373506
0000f0 76 4f 6a bd 88 30 4e bd de 2a 6c bd 44 fe da 3c
       -0.057204686 -0.05033925 -0.05765807 0.026732571
000100 0f 27 c5 3d a9 ab 32 bb 7a 1f b8 3d dd ce 65 3e
       0.096265905 -0.0027262962 0.08990379 0.22442193
000110 f8 cd 37 3e b2 f4 93 3c 06 2e e8 3d 96 54 2f 3e
       0.17949665 0.018061016 0.11336903 0.1712211
000120 c0 a7 f2 3d 1a 8f 82 3d 71 91 7c 3d 19 ea 20 bd
       0.11848402 0.06374951 0.06166214 -0.039285753
000130 73 aa 31 bd 05 b6 87 3d c6 e6 fe 3d a5 23 2d 3d
       -0.043375444 0.06626514 0.1244636 0.04227032
000140 56 8c 9d 3d c1 d6 ad bd d0 e7 51 bc 35 80 a3 3b
       0.076927826 -0.08488227 -0.012811616 0.0049896487
000150 26 01 d7 3c bc 56 9b 3c b5 b8 7f bd d9 59 1d bd
       0.026245665 0.018962257 -0.06243201 -0.038415764
000160 e4 cd 3c be 38 9c f9 bd bf 09 20 be 71 a9 92 bd
       -0.18437916 -0.121879995 -0.15628718 -0.07161225
000170 33 e6 fb bc e0 55 a1 bd 69 e6 5f bc f2 c6 19 be
       -0.030749416 -0.078777075 -0.013665774 -0.15017298
000180 a6 c9 8f bd 12 29 1c be 90 c2 33 be 22 de 84 3b
       -0.07020883 -0.15250042 -0.17554688 0.0040548006
000190 bc c2 5b 3c b4 c5 d4 3c 29 8c db bd 7c e9 91 bd
       0.0134131275 0.025973178 -0.10720093 -0.07124612
0001a0 65 97 3b bd 26 b1 7e bd 85 e4 72 be a6 7b e7 bc
       -0.045798678 -0.06218066 -0.23719986 -0.028257202
0001b0 22 cc 12 3e 62 26 8a 3d bb 15 4d 3d 34 3a bd bd
       0.14335683 0.06745602 0.050069552 -0.09239617
0001c0 c2 f0 e8 bd 8b 35 28 3b c8 7c 03 bd 4d 6b c7 3c
       -0.11374046 0.002566668 -0.032101423 0.024343157
0001d0 12 c2 92 b9 e2 2b 58 bd 75 f4 1c bb 34 ca 1a be
       -0.00027991884 -0.052776225 -0.0023949419 -0.15116197
0001e0 fa f5 8e bd 05 89 7b 3c 67 ad 17 bd 47 3d 03 3d
       -0.0698051 0.015352492 -0.037030604 0.03204086
0001f0 96 a4 1b 3d 56 ca c8 bc 64 d3 1c 3d b9 67 b9 b8
       0.03799876 -0.024510544 0.038287535 -8.840807e-05
000200 95 de 82 3a 13 75 c0 ba a1 2a 79 bd 9d 79 00 3d
       0.0009984548 -0.0014683328 -0.06083167 0.03136598
000210 b5 28 4e 3d b1 f4 d7 3c 50 1c 55 3d f7 a5 0c bd
       0.05033179 0.026361795 0.052028954 -0.034337964
000220 7e 4f d6 3a 6e 81 df 3c 48 1d ba 3c 14 ce ab bc
       0.0016350595 0.027283397 0.02271904 -0.02097229
000230 79 0c bc bc 22 6e c3 3c 40 08 97 3b 80 fb 56 bc
       -0.022955166 0.023856226 0.004609138 -0.013121486
000240 6e 03 03 bd 54 43 a3 bd 38 b4 ec 3a d3 75 59 bc
       -0.031985693 -0.07971826 0.001805908 -0.01327272
000250 fb 4b 9b bc b2 09 84 bd ea c9 79 bd 9e 1d 14 bd
       -0.018957129 -0.06447162 -0.060983576 -0.036161058
000260 77 be 04 bd cb 88 e5 bc e2 da 1b 3c 98 ca e1 3c
       -0.032408204 -0.02801933 0.009512635 0.027562425
000270 27 b1 77 3c e7 64 f3 3d e7 29 03 3d d2 eb e9 3d
       0.01511792 0.1188448 0.032022383 0.11421932
000280 89 01 30 bc 46 d1 2e bd 57 08 7a bc 0d 33 a4 3d
       -0.0107425535 -0.042680047 -0.015260777 0.0801755
000290 24 af a9 bd 23 2e f2 38 42 1d 50 3c bb bd a1 bc
       -0.082853585 0.00011548053 0.012702288 -0.01974379
0002a0 0d bf 35 3d 9b e4 78 3d b0 fe a0 3c 4c a2 5a bc
       0.044371653 0.06076489 0.019652694 -0.013344359
0002b0 7e ef 26 3d f6 b3 bf 3c d8 ea 3e 3c 08 04 54 bc
       0.04075574 0.023401242 0.011652671 -0.012940414
0002c0 60 6e 51 3c a9 88 8e 3c e4 57 25 3d fb f5 58 bd
       0.012782663 0.017399149 0.040367022 -0.05296896
0002d0 f4 e9 f0 3c ca 25 86 bc 52 e9 2b 3b 0b e1 04 bd
       0.029408433 -0.016375441 0.00262316 -0.03244118
0002e0 44 26 53 bd c3 2c 71 bc dc eb 91 3c 2d a8 01 bd
       -0.051550165 -0.014720145 0.017812662 -0.031654526
0002f0 91 d3 21 3d 97 63 a9 bd 23 17 c7 bc 1d f8 e2 3c
       0.039508406 -0.082709484 -0.024303025 0.0277062
000300 c8 6e 03 be d3 c1 2b bc b8 fd 8f bd 42 30 43 bc
       -0.12835228 -0.010483223 -0.07030815 -0.011913361
000310 40 75 84 bc f6 9a 92 3d 9e 10 b5 3c 6b 58 05 bd
       -0.01616919 0.07158463 0.02210265 -0.032555025
000320 de ee b2 3c 5e 18 ec 3c 5d 8f 0b bb 97 82 69 ba
       0.021842416 0.028820213 -0.0021295168 -0.0008907704
000330 86 cd 33 bd e3 54 3e bd ac 47 b9 bb b0 03 2e 3d
       -0.043897174 -0.046467673 -0.005654296 0.042483985
000340 c7 ec c9 3c b2 71 80 3d db fb c0 bd 20 23 8a bc
       0.024649037 0.06271686 -0.094230376 -0.016862452
000350 c4 32 3f 3c dd 99 93 bc ca 8c 60 3d 40 c7 77 3d
       0.011669818 -0.018017704 0.054821767 0.060492754
000360 91 b4 cd bd 5f e7 ad 3d f3 2f eb 3c a6 51 b0 3c
       -0.10044206 0.08491396 0.028709387 0.021523308
000370 aa 7c 11 3d c7 41 90 bc ae 3c 13 be 57 bc a3 bd
       0.03551928 -0.01760949 -0.14378616 -0.07994907
000380 b3 6e 9b 3c 0e ad 8c bc d3 fc be bc 59 8a 73 bd
       0.018973684 -0.017172363 -0.023313915 -0.05945811
000390 72 67 52 bd de 44 31 be 46 b2 66 be b0 3c 17 bc
       -0.051368184 -0.17311427 -0.22528943 -0.009230778
0003a0 a9 8f 6e bd b0 2b 92 bd 85 55 01 bd 45 eb 02 bc
       -0.058242474 -0.07137239 -0.0315757 -0.007990663
0003b0 f8 8f 9e bd 19 ee 0d be ff eb 09 be c8 b8 90 bd
       -0.077423036 -0.13860358 -0.13468932 -0.07066494
0003c0 74 95 80 bd ee 49 41 3b a1 fa ef bb 29 4c ac bc
       -0.06278506 0.0029493528 -0.0073235785 -0.02103241
0003d0 86 31 36 3d b7 d1 86 bc 54 a1 1b bc 8d 32 7b bc
       0.044480823 -0.016457422 -0.009498913 -0.015331876
0003e0 dd bb 3d 3b 94 81 41 bc 3f 53 20 3c a3 87 9e 3c
       0.0028951087 -0.011810679 0.009785472 0.019351786
0003f0 c3 8b e0 bc 57 99 98 bd 59 e9 48 3d b1 c9 8b 3c
       -0.027410394 -0.07451122 0.049050663 0.017063947

conv.8.bias f4 [32]
000000 da 2d a4 bd 25 f3 f9 bb 4a 5f 90 bd 73 d1 cd 3e
       -0.08016558 -0.007627862 -0.07049425 0.4019886
000010 61 b1 ed bd a7 ab 66 bd d8 27 8a 3d 7a e8 0e 3c
       -0.11606098 -0.056316044 0.06745881 0.008722419
000020 bf e2 10 bd df c3 d8 bd 5f 34 a2 bd 0c e7 2f be
       -0.035372492 -0.105842344 -0.07920145 -0.17177981
000030 cf 89 df 3d 34 c2 15 bd 9e 40 ec bd 96 d2 c1 3e
       0.10914957 -0.03656216 -0.11535762 0.37855977
000040 36 f7 b9 bd a7 f3 21 be 78 28 07 be 22 bf 95 3e
       -0.09080355 -0.15815602 -0.13199031 0.29247385
000050 b4 90 e5 3e a4 dd 56 bd 1e 2e c9 bd 51 4a e9 3e
       0.44836962 -0.052457467 -0.09823249 0.4556451
000060 da 64 9d 3c e6 38 cc 3e 7d 30 13 3f 44 dc 24 3d
       0.019213129 0.3988716 0.5749586 0.040249124
000070 47 c2 fd bd 27 df 06 bd 8b 45 89 bd 36 42 9b 3e
       -0.12390571 -0.03292766 -0.067027174 0.30323952
