Models/Cnn_kmer_50.pt (torch, 830709 bytes, 14 tensors)

embedding.weight f4 [1025, 64]
000000 97 8f 13 3f 44 65 a7 3e d4 9c 47 3f af 99 f5 be
       0.57640976 0.32694447 0.77973676 -0.47968814
000010 51 f4 fc 3e a3 42 0e bf 2d ff 84 bf f2 ae 5b bf
       0.4940515 -0.5557043 -1.0390373 -0.8581382
000020 0b 0b c8 bf dc 70 a7 3e 6f a2 e4 bd 05 4d b3 bf
       -1.562837 0.32703292 -0.11163794 -1.400788
000030 d2 1c b4 3f 5f 3c 6e be 3b a0 0a bd 44 94 86 3f
       1.4071295 -0.23265217 -0.033844214 1.0513997
000040 15 e2 66 be f9 43 45 3f 35 6b d7 bc 3b 4b f4 3e
       -0.22547181 0.77056843 -0.026296237 0.47713646
000050 f2 07 10 c0 be 07 bd 3f 91 ac b1 bf 36 77 59 be
       -2.250485 1.4767988 -1.3880788 -0.21236882
000060 aa d0 36 be 5f 6f a2 bc 86 f7 e8 3d 89 ed 8b bf
       -0.17853037 -0.019828497 0.11375336 -1.0931865
000070 f0 84 b6 3e 34 e8 52 3f 53 b3 8f 3e 23 3b 17 40
       0.35648298 0.82385564 0.280665 2.3629844
000080 2a 71 75 3e 16 67 ca 3f ad 27 05 c0 7d da d3 bd
       0.2396895 1.5812709 -2.0805466 -0.10344408
000090 6a 4d 62 3f 91 eb f8 bf 39 ad b2 bf 28 7f ad 3e
       0.88399374 -1.9446889 -1.3959113 0.33886075
0000a0 1f b2 9f 3f 90 42 42 bd 86 43 08 bd 4e d4 b6 bf
       1.2476233 -0.04742676 -0.03326752 -1.428354
0000b0 2f e5 d6 be 8a b7 70 3f 92 96 83 3f 3b 57 17 bf
       -0.41971728 0.9403006 1.0280325 -0.5911748
0000c0 59 96 8a bf d8 59 19 3f 37 f8 a7 3f 8e bb 5b 3f
       -1.0827132 0.59902716 1.3122624 0.8583306
0000d0 60 8c 50 bf 7e 10 98 bf 2e a7 81 3f 49 6e 91 3e
       -0.81464195 -1.1880033 1.0129144 0.28404453
0000e0 fd a2 25 bf 5b e5 25 bf 9b 0a ce bf 02 5c c1 bf
       -0.64701825 -0.64803094 -1.6096987 -1.5106204
0000f0 46 53 d3 be a1 b6 85 be 70 89 d1 bf a0 92 0e bf
       -0.4127447 -0.26115897 -1.6370068 -0.5569248
000100 36 a7 99 3f b0 ec a6 3d 0d c6 b1 bf cf 77 95 3d
       1.2004154 0.08150613 -1.3888565 0.07298242
000110 79 2f 05 c0 5b 61 38 bf 43 06 56 bf c4 cb 4f bf
       -2.0810225 -0.7202355 -0.83603305 -0.81170297
000120 9e 87 d3 bf 1a ae c9 3d d2 9e 9b ba f9 8b 77 bf
       -1.6525762 0.0984766 -0.0011872894 -0.96697956
000130 92 7d 84 3f f4 08 a2 bf 79 10 65 be 1c 09 4b bf
       1.0350821 -1.2658982 -0.22369565 -0.79310775
000140 4e 15 95 3f 0c 33 5b 3f 76 d4 95 bf ce 54 2f bf
       1.1647127 0.85624766 -1.1705463 -0.68488777
000150 90 1c 69 be 20 76 d6 3f 50 fe 6e 3f 61 27 a4 bf
       -0.22764802 1.6754799 0.933568 -1.2824517
000160 db d8 86 bf 8e a3 23 3f b2 e4 b6 3d 65 84 5b bf
       -1.0534929 0.6392144 0.08930339 -0.85748893
000170 95 6b 3c 3f e1 a0 00 bf 66 37 bf 3f b8 2d b4 3e
       0.7360166 -0.5024548 1.4938781 0.3519113
000180 92 16 9a bf 20 21 b3 3f 52 37 48 be 6e c5 47 3f
       -1.2038138 1.3994484 -0.19552353 0.7803563
000190 aa e6 c1 3e fe 7c d9 3f 75 47 6e bc 5a 00 8f 3f
       0.37871295 1.699127 -0.014543404 1.1171982
0001a0 74 3b e3 3e a5 f6 89 bf 2c 01 3f 3f fe 98 71 bf
       0.44381297 -1.0778395 0.74611163 -0.9437407
0001b0 33 bd ed 3e 11 45 c7 be d9 be aa 3d 0b c3 d5 3e
       0.4643341 -0.3891988 0.083371826 0.41750368
0001c0 ef af 0a bf ea 13 23 3e c1 dd 88 3f 1c cc 44 40
       -0.54174703 0.15925565 1.0692674 3.0749578
0001d0 a1 3f 90 3f 4e ed c2 bd b9 b5 1e 3f 5b 8a 35 3e
       1.1269418 -0.095179185 0.61996037 0.1772856
0001e0 3e c6 22 bd c4 87 86 3d 9e da 1e 3f 0e de 98 be
       -0.03973984 0.06568864 0.62052333 -0.29856914
0001f0 57 2d 93 3d 43 7d fb 3f 9d 8b cc 3f 8d d3 d6 bf
       0.07186382 1.9647602 1.5980107 -1.678331
000200 6c 48 9e bd e9 d2 eb bf 9d 7b f7 3e 28 a4 83 bf
       -0.07728657 -1.842374 0.48336497 -1.0284472
000210 a0 38 98 3e ba 35 7e bf 0f ac 36 bf c0 08 0a 3e
       0.297307 -0.9930073 -0.7135629 0.134799
000220 8f 3a cb 3e 35 aa 4a be 69 e0 86 3f c1 8d a5 3f
       0.39693114 -0.19791491 1.0537235 1.2933885
000230 d0 e3 0b bf 93 4a 2c bf 87 19 52 3f 11 0e 21 3e
       -0.5464449 -0.6730129 0.820702 0.15728022
000240 6d 08 1c 3f c7 7b 32 3f a4 ff a4 bd b1 e2 8e bf
       0.60950357 0.6972012 -0.08056572 -1.1162931
000250 7f f5 b7 bf 6c 7f 6d bf 3d f2 6f 3f c4 6b 03 3f
       -1.4371794 -0.92772555 0.93729 0.5133631
000260 bb 31 e5 be e6 fd 67 bf 0d 1d 8b bf 6f 9d 0d bf
       -0.44764504 -0.90621793 -1.086824 -0.5531835
000270 1b 07 6c 3f 66 07 ad bd a5 61 37 3e 00 6c 33 3f
       0.9219834 -0.08448677 0.17908342 0.7008667
000280 b7 1a 75 be 95 6a a0 bf c2 30 89 bf e0 74 25 bf
       -0.23935972 -1.2532526 -1.0718005 -0.6463146
000290 a4 94 96 be d5 27 38 3f a2 43 0b bf cd 08 6f be
       -0.2941028 0.7193578 -0.54400074 -0.23343201
0002a0 5d be 3b 3f 0a 70 ff 3e d6 0c 5c 3f ac d4 5f bf
       0.73337346 0.49890167 0.85957086 -0.87433887
0002b0 02 95 bb 3f cb 02 34 bf d9 b3 ff bd 75 43 1f bf
       1.4654849 -0.7031676 -0.12485475 -0.62212306
0002c0 73 d5 19 bf 8a 15 bc 3f b2 ed 9f 3e ac ba 14 bf
       -0.6009132 1.4694073 0.31236035 -0.5809734
0002d0 7e 08 f8 bf 77 ab 76 3f 4d 2a 5c bf 01 bb 9f 3f
       -1.9377592 0.96355385 -0.86002046 1.2478944
0002e0 e8 ad ef 3e 92 d8 96 bf c9 91 3c 3e 56 db 9f 3f
       0.46812367 -1.1784842 0.18414988 1.2488811
0002f0 00 b9 52 3f 52 5a 52 bf af 44 60 3f 93 5b d2 3f
       0.8231354 -0.8216907 0.876048 1.6434196
000300 6c d4 6b 3e b3 fb 4f bf af 0c 58 bf 04 02 74 be
       0.23030251 -0.8124344 -0.84394354 -0.23828894
000310 b0 a5 f3 be da f5 04 3e 5b ec 8c 3f 93 65 a8 bc
       -0.47587347 0.1298441 1.100963 -0.020556247
000320 80 69 3e 3e 56 a0 7e 3f 43 ea e9 bf b9 bf e9 3f
       0.18594933 0.99463403 -1.8274616 1.8261634
000330 ce 87 5f 3f 57 7d c6 bf a5 1f 09 3f d5 d0 13 bf
       0.87316597 -1.5507001 0.5356391 -0.5774053
000340 08 ff 31 be 13 ca ef 3f e5 4b 77 bf 98 40 c7 bd
       -0.17382443 1.8733543 -0.9660018 -0.09729117
000350 79 e4 0d 3f 33 1b 1f 3f bf 3a 28 bd 74 51 63 bf
       0.55426747 0.6215088 -0.04107165 -0.8879616
000360 89 06 49 bd 61 64 83 3e f2 15 a6 bf b6 2c 80 bf
       -0.049078498 0.2566252 -1.2975447 -1.0013645
000370 02 45 f8 3e 29 cc 61 bf 9b 68 07 3f 2c fc 28 40
       0.4849015 -0.8820215 0.5289399 2.6403913
000380 d8 20 ba 3d b3 e8 20 3e 11 17 5b 3f ef 7a c0 bd
       0.09088296 0.15713768 0.8558207 -0.09398448
000390 21 c9 f5 3f 22 1f b2 be 67 53 85 bf 0b 07 2b 3f
       1.9202005 -0.34789377 -1.0416077 0.6680762
0003a0 14 1c be 3f ff 25 7d bf 7e 4e 0d bf 31 99 96 bf
       1.4852319 -0.988861 -0.55197895 -1.17655
0003b0 ab 6a dc be a7 56 6f 3e 03 1d 0b bf 4e 3c 99 be
       -0.4305013 0.23372899 -0.54341143 -0.2992882
0003c0 4b c6 84 3d 74 0d 12 3f 78 3a 50 3f e9 f4 5e 3f
       0.06483134 0.5705178 0.81339216 0.87092453
0003d0 85 03 a3 bf 3f c4 6e bc 1e ec e6 3e d6 62 a0 be
       -1.2735449 -0.014573156 0.45102018 -0.31325406
0003e0 15 66 69 3f cb 42 70 bf ba b5 bf 3f 3e 62 35 bf
       0.9117139 -0.9385192 1.4977334 -0.7085303
0003f0 ba 90 d2 3e af 7b 3e 3f da 58 1c 3e 92 f2 38 bd
       0.41126043 0.74407476 0.15268269 -0.045153208

conv.0.weight f4 [32, 64, 11]
000000 bd e6 e3 3d e1 54 5d 3b d2 d3 ab 3d 86 92 96 be
       0.11127994 0.0033772516 0.08390011 -0.29408664
000010 68 35 17 bd dd bc ae bd 97 ad 71 3e 74 c7 86 3e
       -0.036916167 -0.085321166 0.23601376 0.26324046
000020 24 26 1e 3c 26 d8 89 bd 9b cb 11 3e ab 66 14 3e
       0.009652648 -0.0673068 0.14237826 0.1449229
000030 aa bb 15 be c6 64 10 3e 2a c6 f4 3d 18 be 80 be
       -0.1462237 0.14100942 0.11951859 -0.2514503
000040 71 7b 1a be 5b 17 63 3d d0 53 e7 3d c6 a1 27 be
       -0.15086152 0.055442195 0.11295283 -0.16370305
000050 0f f1 00 be 71 6c bb bc bd ee 11 3c bd 8a 2e 3e
       -0.12591957 -0.022878857 0.008907017 0.17045112
000060 37 5f 86 3e 54 f7 ec 3d ce 74 89 be d7 b1 0c 3e
       0.26244518 0.115706116 -0.26846927 0.13739716
000070 63 68 0e 3e d1 d0 3e be d6 8d df bd 71 a4 13 3e
       0.13907008 -0.18634345 -0.10915725 0.14418198
000080 b7 e0 25 3e 63 ff 14 3d f1 b5 8a bd 5f 83 97 3e
       0.16199003 0.03637637 -0.06772984 0.29592416
000090 bb d3 f4 3e 77 26 85 3d de 3b b3 be bd 2d 4d 3e
       0.47817788 0.06501477 -0.35006613 0.20036979
0000a0 53 19 57 3c 10 21 cd 3d 77 50 40 3b 6d db ed bd
       0.013128596 0.10016072 0.0029344836 -0.11614118
0000b0 7b 6d 5b 3e f4 7d 0a 3e 79 ca 68 be a8 6b 52 3e
       0.21428482 0.1352461 -0.22733487 0.2054888
0000c0 32 2f 07 3e 7d a7 72 bc cc 82 8d be ed db fd be
       0.13201597 -0.01481044 -0.27638853 -0.49581853
0000d0 de e1 67 3e fa 0f dc 3d 19 f7 82 3e 78 7b 7b 3e
       0.22644755 0.10745235 0.25579146 0.24558818
0000e0 d2 26 30 be cd ee c6 be f1 3f 95 be 88 ce 63 be
       -0.17202309 -0.38854066 -0.29150346 -0.22246754
0000f0 3c 48 e5 3e 87 91 da b8 a0 fe 1a be ca 3f 6b be
       0.44781673 -0.000104221566 -0.15136194 -0.22973552
000100 5a 77 5d bd 59 03 81 bd e2 f4 8c be 84 e4 7a bc
       -0.0540689 -0.06299467 -0.2753058 -0.015313271
000110 bd e8 b6 3c a5 47 aa bd 8f 35 19 be b7 30 c5 3d
       0.022327775 -0.08314446 -0.14961837 0.09628432
000120 12 a6 0b be ee 4b 65 3e 9a 5e 57 be 68 80 42 3e
       -0.1363757 0.22392246 -0.21032181 0.18994296
000130 26 48 50 3e cc ae 82 3e 0d f6 0c 3e d7 59 fd 3d
       0.20340022 0.25523984 0.13765736 0.12370651
000140 5d 91 44 be 0c 2a 9e bd f9 6a a2 be 51 80 88 3e
       -0.19196077 -0.077228636 -0.3172224 0.26660398
000150 10 24 1a 3d 17 e0 ac 3d 7d cb a2 3e be 36 50 bd
       0.037632048 0.08441179 0.31795874 -0.050833456
000160 cf f9 80 be 96 a6 50 3e bb 8c db 3e 5b 63 d7 3e
       -0.2519059 0.20376047 0.42880806 0.4206799
000170 52 d4 c8 3e 5d 93 ce be 16 65 86 be b7 7b 62 3e
       0.39224488 -0.40346804 -0.26248997 0.22117506
000180 54 75 a0 3d f6 2c b9 3d c8 3e a7 be b0 ac 84 3e
       0.078348786 0.09041779 -0.32665086 0.25913
000190 4c ca 8c be 93 03 48 be dc 56 47 be 2b 85 64 3d
       -0.2749809 -0.19532613 -0.19466728 0.05579106
0001a0 8c ae 66 3e 3b 9a 9a be c9 dc ea bc 65 d9 16 3c
       0.22527522 -0.30195794 -0.028669732 0.009207104
0001b0 a0 19 67 3e 0f 68 c7 3c 4f a1 34 be 13 d0 90 3c
       0.22568369 0.024341611 -0.1763966 0.017677343
0001c0 ea ff d3 3e e9 f5 90 bd 83 49 95 3e df 52 27 be
       0.41406184 -0.07078154 0.29157647 -0.16340207
0001d0 bb fc e6 3e 17 42 a5 3d 22 0e bb 3d 65 7b b5 3e
       0.45114693 0.08069246 0.09133555 0.35445705
0001e0 a2 c1 ff bd ea 0c c3 bd 1f 09 c3 bd 78 df 3f be
       -0.124881044 -0.095239475 -0.09523224 -0.1873759
0001f0 1a 09 27 39 eb 01 2b 3f 37 b9 34 3e a2 0e 5c be
       0.00015929752 0.667998 0.17648779 -0.21489957
000200 70 6e ff be 7c 26 d9 bd b0 0d 8c be 2c 56 7a be
       -0.49888945 -0.106030434 -0.27354193 -0.24446934
000210 c0 95 93 3e 12 f2 93 be f1 f4 1e be 26 b8 25 bf
       0.28825188 -0.28895622 -0.15523125 -0.64734113
000220 7b 13 bf 3d 39 f7 da 3d 98 33 a8 3e 4b a4 86 be
       0.093298875 0.10691685 0.32851863 -0.2629722
000230 ad d2 43 3e c2 b6 33 be 8d b5 36 be e5 9d 7d be
       0.19123335 -0.17550185 -0.17842694 -0.24767263
000240 f9 66 b8 3e 11 81 cf 3e fe e9 09 3f c4 b5 a7 3d
       0.36016062 0.40528157 0.5387267 0.08188966
000250 1e 65 65 be 36 7b 21 3d c8 1c 4b 3e e4 6d 39 3e
       -0.22401854 0.039424144 0.19835198 0.18108326
000260 b7 58 40 be f2 2c d7 bc 91 03 86 3d 4c c6 5c be
       -0.18783842 -0.026266549 0.06543649 -0.21560019
000270 ee 41 8f 3d 3c 5d 09 be 6e cb ae bd a4 61 1e 3d
       0.06994997 -0.13414472 -0.08534895 0.038667336
000280 c3 9d b3 bd d5 0a 54 bd 2b 02 db 3e 5e c1 54 bc
       -0.08770325 -0.051768143 0.42775092 -0.012985555
000290 01 0f e3 3e df 73 34 3d 1a 09 04 3e ba 64 81 bd
       0.44347385 0.044055816 0.12894097 -0.0631804
0002a0 d7 90 5f be 24 16 30 be 6c a9 48 be 93 76 84 be
       -0.21832596 -0.17195946 -0.1959588 -0.25871715
0002b0 7c 95 0e 3e e9 e3 81 bd 39 84 19 3d d0 79 b3 3d
       0.13924211 -0.063422985 0.037479613 0.08763468
0002c0 8b 7a e3 39 1c 24 91 3e 8f 25 de 3e 7b 39 7a be
       0.00043388116 0.28347862 0.4338803 -0.2443599
0002d0 ce 40 1c 3e 97 15 2d bd 70 3d cd 3d 59 1c 84 bd
       0.15259096 -0.042256918 0.10021484 -0.064507194
0002e0 d2 ba b0 bd 65 59 db be 0c ba 3a bd 17 a1 bb bc
       -0.08629383 -0.4284164 -0.045587584 -0.022903962
0002f0 fd d0 e1 bd 59 e9 01 3d 87 33 d9 be 40 69 9f be
       -0.110261895 0.03171668 -0.42422125 -0.31134987
000300 5d a1 3b 3e 12 13 16 be c3 1b 4e be 5b 51 ea bd
       0.18323274 -0.14655712 -0.20127778 -0.114412986
000310 5f cb 4c bc d8 cd f3 bd 6a d9 b0 be 12 5e 84 3d
       -0.012499659 -0.11904496 -0.34540874 0.06463255
000320 d8 5b 97 3e 93 d4 32 bd da c4 29 be 5f 32 96 3e
       0.2956226 -0.043659758 -0.16578999 0.29335305
000330 9e 17 ba be 27 8d 68 bd 0f 1e 65 3d 7a 09 05 be
       -0.36346143 -0.05677524 0.05593687 -0.12991896
000340 70 7c 89 3d dc 89 0b 3f 58 aa 36 3e 86 72 8e 3d
       0.06713188 0.5450723 0.17838418 0.06955437
000350 6d 0d 75 be 3e b8 03 3e 25 88 62 be b8 8c cb be
       -0.23930903 0.12863252 -0.22122248 -0.39755797
000360 23 18 86 3e 3e 24 22 be 4c 92 e7 3e b8 4f 48 3e
       0.2619029 -0.15834138 0.45228803 0.1956166
000370 fa aa 6d bd 8c ee 9b be 0b ef de be f8 ec 5c be
       -0.058024384 -0.30455434 -0.4354175 -0.21574771
000380 14 94 06 3e b5 4b 33 bd bc 81 2a be 3d c7 35 be
       0.13142425 -0.04377337 -0.16651052 -0.17751785
000390 3a b1 ab be 37 4f a9 bd ed e1 c0 be 69 19 6d 3e
       -0.3353365 -0.08267062 -0.37672368 0.23154224
0003a0 0e 3f 20 3e f9 9c 35 3e 20 f4 cb bc f1 78 a3 3e
       0.15649053 0.17735662 -0.024896681 0.31928208
0003b0 01 f4 96 bc b2 9c 2a 3e 42 b0 46 be 7b fc 06 3e
       -0.018426897 0.16661337 -0.19403175 0.13182251
0003c0 5c cc ff 3e 0d 5a 65 3d 30 23 ac 3e 16 5e 7a 3d
       0.499606 0.055994082 0.33620596 0.061124884
0003d0 8d 20 82 3e 46 ca 5b 3d 34 bb 03 3c ee 51 4a bd
       0.2541546 0.0536597 0.008040238 -0.04939454
0003e0 e7 97 23 3e bc 14 94 39 c4 7d 06 3e 02 b2 d4 3e
       0.15975915 0.00028244208 0.13133913 0.4154206
0003f0 2f f1 39 bf e2 5c ef bd 58 52 9c be c8 94 1f 3e
       -0.7263364 -0.11687638 -0.30531573 0.155841

conv.0.bias f4 [32]
000000 67 8b 34 3e 67 4f 87 3e 0b 48 80 be 19 92 da 3c
       0.17631303 0.26427767 -0.25054964 0.026680993
000010 59 39 57 3c e6 65 ec bb fd f8 12 3d 45 b8 d0 3b
       0.013136231 -0.0072142957 0.035881985 0.006369623
000020 81 99 63 bf 25 d8 6a bf b8 d7 83 be 01 91 bd be
       -0.88906103 -0.9173606 -0.25750518 -0.37024692
000030 2c 8f bd 3c 63 a2 83 bc 07 f6 0b bf e9 3e 2c bf
       0.023139559 -0.016068643 -0.5467228 -0.67283493
000040 48 ec 3a be 30 62 21 bb 48 6f 19 bf 34 f4 02 bf
       -0.18254197 -0.0024625175 -0.59935427 -0.51153874
000050 ea 40 80 be 41 ff c6 be 60 c1 0b bd 05 b9 6e bc
       -0.25049525 -0.38866618 -0.034119964 -0.014570479
000060 63 b0 26 bf 8d 3d 4c bf ed d8 82 bf 71 fd 0b bf
       -0.65112895 -0.7978142 -1.022245 -0.54683596
000070 c2 97 c0 be 00 39 69 bd 4c 4c da 3d f9 97 48 bf
       -0.37615782 -0.056939125 0.10659084 -0.7835689

conv.2.weight f4 [128, 32, 7]
000000 ad 78 79 bd f9 ec 00 be 97 fb 81 be af aa 4d 3e
       -0.0609061 -0.12590398 -0.2538726 0.20084642
000010 44 19 8b be 3c 79 c3 3d 3e f4 ad be da ca 4c be
       -0.27167714 0.09544608 -0.33975405 -0.19999257
000020 9e 02 ab bd b8 64 02 3d a7 a3 60 3e 6c b9 df bd
       -0.083501086 0.031834334 0.21937428 -0.10924038
000030 20 2d 0d bd 1f 81 9d bc af 18 d3 ba a3 95 ae be
       -0.034466863 -0.019226609 -0.0016105379 -0.3409854
000040 f0 bd 78 3e ad be 3f bd 19 3d bd 3d 69 63 5a bd
       0.24291205 -0.046812702 0.09240169 -0.05331746
000050 73 31 97 bd 8d 8c 61 be da 1b 00 3e 1e e1 04 3e
       -0.073824786 -0.22026272 0.12510625 0.129765
000060 14 1e 08 3e 30 2a 77 bc 69 5b ba 3c d9 ea b9 bd
       0.13292724 -0.015085742 0.022748666 -0.09077997
000070 8f 86 1a bd 4b 51 73 3e 69 f5 3c bd 54 8e 09 be
       -0.03772598 0.2376148 -0.04613248 -0.134332
000080 f1 1e a3 bd 7a e0 59 3e 21 74 49 be a1 f7 9f be
       -0.07964886 0.21277037 -0.19673206 -0.31243613
000090 74 34 b5 3d 7d 57 7d bd 7a f9 7e be 81 7e dc bd
       0.08847895 -0.061851013 -0.24899855 -0.10766316
0000a0 22 f0 95 be 68 8c 71 be 4f 8a 61 bd c0 c1 82 be
       -0.2928477 -0.23588717 -0.055063542 -0.25538445
0000b0 a6 41 fa be f1 4e 80 be 4d 36 19 3d 5c f3 6a be
       -0.4887821 -0.25060228 0.0374053 -0.22944397
0000c0 89 11 11 be 5e bb ea 3d a3 9c 81 bd ac 37 a1 be
       -0.14166845 0.11461519 -0.06328704 -0.31487787
0000d0 59 bd ce be d4 a2 43 3d f0 83 60 be 8e ac 58 3e
       -0.40378836 0.047762707 -0.2192533 0.21159574
0000e0 28 f3 9f 3e 33 4d 93 3c 51 a3 9d 3e fe 38 52 3c
       0.312402 0.017981147 0.30788663 0.012830971
0000f0 dd ba b3 3e 4b d0 d5 3e f9 fc 8b 3e 1d 78 80 3e
       0.35103503 0.41760477 0.2734144 0.2509164
000100 b2 9d 20 bd 8f 8b e7 bd df ff 60 3e 97 ec 8a be
       -0.03921289 -0.113059156 0.21972607 -0.2713363
000110 fe 8d 1f 3e cd a7 20 3e 76 1b 92 be 09 4e 3c be
       0.1558151 0.15689011 -0.28536576 -0.18389143
000120 10 8f 8c be 9b 4c e7 be e5 d6 20 bf 1f d5 f9 be
       -0.27452898 -0.45175633 -0.62827903 -0.4879541
000130 a6 bb ef 3d d0 1f 09 be 2d ed 15 3e ce 7c e2 3c
       0.11705713 -0.13391042 0.14641257 0.027647402
000140 a5 ec 2a bd d3 bd ae 3e 79 61 f7 bd 78 46 99 be
       -0.041729588 0.341292 -0.12079138 -0.29936576
000150 07 37 b6 bb 37 94 90 bd 50 73 3d be 19 04 8c be
       -0.005560759 -0.0705952 -0.1850102 -0.27346876
000160 e4 c3 6e be b4 ba d7 3b cb bf 87 be 75 96 cc 3d
       -0.23316914 0.006583536 -0.26513514 0.09989635
000170 0b f3 92 bc 1f c5 d9 bd fb 78 46 be b6 d8 2b 3e
       -0.017938158 -0.10633301 -0.19382088 0.16781887
000180 66 df a4 bd 49 21 74 3b 5d 20 a4 be fa d0 85 bd
       -0.08050422 0.0037251285 -0.3205594 -0.06534
000190 86 2a e6 3d 61 d8 70 be 24 7a 6a 3e 02 55 12 3e
       0.112385795 -0.23520042 0.22898155 0.1429024
0001a0 01 b8 18 3e 59 85 47 be f6 f8 d7 3c 7e c0 f4 3d
       0.14913942 -0.19484462 0.026363831 0.119507775
0001b0 fb 32 43 3e da 79 40 3e 11 7e 40 be 9c a2 1c 3e
       0.19062416 0.18796483 -0.1879809 0.15296406
0001c0 3b 14 ce 3d a4 da b8 be a4 fd ab bd 2f 22 ff be
       0.100624524 -0.3610431 -0.083979875 -0.49830768
0001d0 62 cb 5f be 11 ab ed bd bd 9d d6 3d 05 f2 a3 bd
       -0.21854928 -0.11604894 0.10479305 -0.08005146
0001e0 57 07 1c be 89 11 a3 be 09 3b c7 be 3b 39 8e be
       -0.15237175 -0.31849316 -0.38912228 -0.27778038
0001f0 45 4c 15 be c2 34 d0 bd e8 5c e1 be ac 6b 14 be
       -0.14579876 -0.10166313 -0.44016194 -0.14494199
000200 a8 bb d9 bd 75 86 5a be 89 ad d6 bd a0 0a 63 be
       -0.10631496 -0.21340354 -0.10482318 -0.22172022
000210 11 1c 5f be 29 0d cd 3c 8b b1 e4 3d 55 aa 48 be
       -0.2178805 0.02503069 0.11166676 -0.19596227
000220 0a 56 02 3d 1a 5f 1c 3e 2a d9 54 bd 70 a7 86 be
       0.031820334 0.15270653 -0.051964916 -0.2629962
000230 19 cd 0a 3e a2 16 33 be 8b 97 a9 be dc ba 7b be
       0.13554801 -0.17489102 -0.3312343 -0.24583
000240 d8 62 7a 3e 6e 1e 0c be cb a2 eb bd 04 04 27 3d
       0.24451768 -0.13683483 -0.1150566 0.040775314
000250 5d fc 24 bd e2 10 92 be 71 f3 53 3d 94 fc 69 3e
       -0.040279735 -0.28528506 0.051745836 0.22850257
000260 3b c7 1c be 6d b0 08 be 5a c6 37 be 6d 08 34 be
       -0.15310375 -0.13348551 -0.17946759 -0.17581339
000270 42 d0 0e 3d 78 b6 b9 bd 03 15 76 3c 41 ec 0e be
       0.03486658 -0.09068006 0.015019658 -0.13957311
000280 f1 aa 72 be 8b 4d cd 3d 74 6d 8d be c7 fb 16 be
       -0.23698021 0.10024556 -0.2762257 -0.14744483
000290 32 b4 20 be e3 df af be 13 aa 0b bf 99 27 45 3d
       -0.15693739 -0.343505 -0.5455639 0.048133466
0002a0 3e 03 9d 3e 70 79 80 bd 6e ba 72 be c9 01 0a 3e
       0.30666536 -0.06273162 -0.2370393 0.13477243
0002b0 0d 48 88 be d7 66 5b 3e c3 26 b5 3d 6f 23 24 3d
       -0.2661747 0.21425949 0.08845284 0.040072855
0002c0 72 0c 0a bd 3b e6 ee 3d 8e 15 6f 3e 97 92 3b 3e
       -0.033703275 0.11665007 0.23348066 0.18317638
0002d0 76 1e 91 3e 81 94 a9 3e 37 9d c1 bd d8 2d 99 bd
       0.28343552 0.33121112 -0.094538145 -0.07479447
0002e0 6a 79 43 be 88 66 16 3e cc 73 ee 3d 5a 40 20 bd
       -0.19089285 0.1468755 0.1164318 -0.03912387
0002f0 e4 0a 4b 3e fc 76 22 3e ba d7 00 3d 48 f5 41 be
       0.19828373 0.15865701 0.031455733 -0.18941224
000300 3a 68 4b be b8 93 81 3e 7f c4 fc 3d 7e 00 63 3e
       -0.19863978 0.25308013 0.12342166 0.22168157
000310 02 10 b9 3e 62 e5 66 3e 2c 4b 91 3d 9e a2 e5 bd
       0.36145025 0.2254844 0.07094416 -0.112126574
000320 06 b5 67 3a 2e 55 25 bd 40 5a e5 bb d5 8b a9 be
       0.0008838925 -0.040364437 -0.006999284 -0.33114496
000330 85 cf 34 3e cd 2a b2 bd 57 ec 6f 3e 58 bb 02 bf
       0.17657287 -0.0869957 0.2343 -0.51067114
000340 6f 6b 52 3e 4a e4 8e be 02 03 86 bd 8d 76 c4 3d
       0.20548795 -0.27908546 -0.065435424 0.09592924
000350 e4 d0 78 bc bf d8 86 bd 94 22 13 3e b3 84 08 be
       -0.015186522 -0.0658431 0.1436866 -0.1333187
000360 ab c4 d0 bd 2a 53 ac bc a9 17 83 3d fb df 7c 3e
       -0.101937614 -0.02103575 0.06400997 0.24694817
000370 60 96 23 bd 19 18 2b 3e 88 98 47 be e4 c6 77 3e
       -0.03993833 0.16708411 -0.1949178 0.24196965
000380 6c e0 74 bd ac 18 00 3d a9 ae cb 3c 3c 45 15 bd
       -0.059784338 0.03127353 0.024863558 -0.03644298
000390 05 d0 fd bb d1 1f 3a bd ba 5c 2f 3c d9 67 a1 bd
       -0.007745745 -0.0454405 0.01070326 -0.078811355
0003a0 b9 b9 07 bc 45 5a a4 bd 01 89 4c bd 78 80 e7 bc
       -0.008284026 -0.0802503 -0.049935345 -0.0282595
0003b0 0f 20 9f bd a7 94 b7 bc 5d 06 a4 3c 2d eb 70 bd
       -0.077697866 -0.02240975 0.020022565 -0.05881803
0003c0 ae d7 29 3c 5d 60 ae bd 26 5b 94 bd e6 82 bc 3c
       0.010366363 -0.085144736 -0.07243948 0.023011636
0003d0 2d a1 db bc 3e ec 46 bd d2 8e a6 3c a6 d4 15 bd
       -0.026810253 -0.04856514 0.020331774 -0.03657975
0003e0 8c 59 d3 3c 4a 48 46 bd 63 d9 1e 3d dd 20 89 bd
       0.025799535 -0.048408784 0.038781535 -0.06695721
0003f0 c5 fe fd bc 89 df a3 bd 8f 45 58 bd e0 30 17 bd
       -0.031005273 -0.0800162 -0.05280071 -0.036911845

conv.2.bias f4 [128]
000000 1b 98 96 be c8 50 18 be 74 de 69 bc 1d 0b 7c be
       -0.29412922 -0.14874566 -0.014274228 -0.24613614
000010 b7 5e 31 bc bd 1a 1f be 96 81 b7 be 04 57 25 be
       -0.010825804 -0.15537544 -0.35841054 -0.16146475
000020 c1 ca 5c be 18 bb d2 bd 8d a0 40 bd 26 0d 0c ba
       -0.2156172 -0.102895916 -0.047028113 -0.00053425354
000030 50 04 b0 3b c3 6f e0 bd 52 1a 9a be 1f 8d 5d be
       0.005371608 -0.10958817 -0.30098206 -0.21635865
000040 a3 e2 70 be bc 05 74 bc 7e 88 0f bd c7 a8 44 bd
       -0.23523955 -0.014893945 -0.03504228 -0.04801252
000050 e3 33 8a bb 47 37 91 bd 80 e3 9e bd 82 d1 dd bd
       -0.004217611 -0.070906214 -0.07758236 -0.10830976
000060 df 6c b8 be 9d 6e c2 bd 1c e8 90 bd 01 b6 28 be
       -0.36020562 -0.09493754 -0.07075521 -0.16475679
000070 ac 0a 9f bd 65 1e b6 be 93 68 a0 be ee 4a 95 bd
       -0.077657074 -0.35570064 -0.31329784 -0.07289682
000080 7e 49 9e be cc 38 e0 bd 38 f6 e0 be 14 84 75 bc
       -0.30915445 -0.10948333 -0.4393785 -0.014985103
000090 1d 30 80 bd 0b 42 1e be 59 f5 b7 bd a9 cc 95 bc
       -0.06259177 -0.15454881 -0.08982343 -0.018286066
0000a0 3b dc 1d bd f2 a9 b5 bd 8f 29 49 be af 52 2f be
       -0.038540106 -0.08870305 -0.1964476 -0.17121385
0000b0 e8 b3 cf be 07 a3 1b be 88 53 bf bd e4 c6 1a bd
       -0.40566945 -0.15198909 -0.09342104 -0.037787333
0000c0 94 ea b3 bd c7 52 42 3c 77 1b 72 be 6d b1 b2 be
       -0.087849766 0.011860556 -0.2364329 -0.3490099
0000d0 8f 77 48 bd 8f a5 59 be 79 cf 9b bd a7 2e da bd
       -0.048942145 -0.21254562 -0.07607932 -0.106534295
0000e0 e2 9a 83 be b5 1e b2 bd 89 bc bd be c9 e4 80 bd
       -0.25704104 -0.08697263 -0.37057903 -0.06293637
0000f0 65 9f 84 be ca 75 d2 bd 2e bf 8f bd 9b ee 01 be
       -0.25902858 -0.10276373 -0.070188865 -0.12688677
000100 2f 9c bd be b3 66 84 be 10 36 0f be 9b ab b8 bd
       -0.3703322 -0.25859603 -0.13985467 -0.09017106
000110 3d 03 74 be e4 bb d5 be be 68 3a be da 0d 2d be
       -0.2382936 -0.41744912 -0.18204018 -0.16899815
000120 2c 4c 35 bb 52 34 6f be 35 e4 d7 bd 46 4f fa bb
       -0.002766381 -0.23359802 -0.10541574 -0.0076388447
000130 39 3e 47 bd 29 b7 4d be 87 45 86 bd e8 0e 06 be
       -0.048643325 -0.20089401 -0.0655623 -0.13091624
000140 7a 8f b7 bc 40 98 66 be df 39 0b be f2 a7 bb be
       -0.022407282 -0.22519016 -0.13596295 -0.3665157
000150 ee 1e c0 bd 0b 1e 90 bd e2 ef 06 bd a5 a9 f2 3c
       -0.09380899 -0.0703698 -0.032943614 0.029621908
000160 40 1f 69 be 79 ab 80 bd 3d dc b5 3a 1a e4 c8 bd
       -0.22765827 -0.06282706 0.001387484 -0.09809132
000170 bb 71 a7 be 7c 2e 95 be 41 a1 bb bc 7e c9 72 bd
       -0.32703957 -0.29137027 -0.02290404 -0.05927419
000180 a6 d4 73 be d8 d4 fd bc 0a 9d a4 be d1 1e 08 be
       -0.23811588 -0.03098528 -0.3215106 -0.13293006
000190 24 8f cf be 46 56 e3 bd 57 c5 96 bd 9b 8b e7 3e
       -0.40538895 -0.1110044 -0.07361858 0.45223698
0001a0 46 a3 23 be c8 61 c5 bd 03 18 71 bd 35 d7 fc bd
       -0.15980253 -0.09637791 -0.05886079 -0.12345735
0001b0 15 e7 4b bd c8 31 59 3e 48 d0 18 bd 59 47 4e be
       -0.049780924 0.21210396 -0.037308007 -0.20144404
0001c0 7f cd 77 be 56 e8 42 bd e4 0f e3 bc 3b aa 73 be
       -0.24199484 -0.047584854 -0.027717538 -0.23795407
0001d0 56 81 dd bd 9f 40 4e be bb 15 a6 3c d0 e2 4a be
       -0.108156845 -0.20141838 0.020274034 -0.19813085
0001e0 77 d7 80 bd 88 e3 37 be 2b 46 c4 bb cb 86 4d bc
       -0.06291097 -0.1795789 -0.00598981 -0.012544344
0001f0 19 74 04 be d9 17 bb bd cc b9 15 be aa bd 24 3c
       -0.12934913 -0.09135408 -0.14621657 0.010054985

conv.4.weight f4 [64, 128, 5]
000000 69 cb ad 3e 33 88 ea 3e 0c f2 a3 3e 59 c5 ca 3e
       0.33944252 0.45807037 0.32020605 0.3960369
000010 4c 42 71 3f 4e ac 27 bd d5 33 87 3b 60 c4 c4 bc
       0.94241786 -0.040935807 0.004126052 -0.02401942
000020 f5 33 8a bc 6e 81 a8 3c a0 78 06 bc 95 0a d8 3a
       -0.016870478 0.02056953 -0.00820747 0.0016482646
000030 31 2c fb bc 22 e6 87 bb be 0c 1a bd 2e 41 52 be
       -0.03066072 -0.004147307 -0.03760981 -0.20532677
000040 48 1a df 3e 54 d4 d6 3e f0 5b 5f 3e bf 4c 37 3f
       0.43574739 0.41958869 0.21812415 0.7160148
000050 e1 46 18 bc f5 47 2b bd 6b 33 9f 3c a9 d9 1e bd
       -0.009294243 -0.04181667 0.019433698 -0.038781796
000060 a1 19 8c bc 6c 6e ef 3d 8c 72 1a 3e 21 b1 c3 3e
       -0.017102065 0.11690983 0.15082759 0.38221076
000070 9c 3c 30 3e d2 c0 d4 3c 0b da 62 3e 29 b0 19 3e
       0.1721062 0.02597085 0.2215349 0.15008606
000080 bc e5 7a 3e e8 dc 6f 3d cc da db 3e 5b 72 4e 3e
       0.24501699 0.058560282 0.42940366 0.2016081
000090 9e 6a 48 3e 70 49 43 3e 33 91 bb bd c6 89 10 3c
       0.19571921 0.19070983 -0.09158554 0.00882191
0000a0 77 94 b7 3e 31 e3 0b bd 77 da 7a 3e c1 be 19 3e
       0.35855457 -0.034152213 0.244974 0.15014173
0000b0 bd c4 a3 bd b8 74 55 bc 88 49 b2 bb 31 d4 ec 3b
       -0.07996509 -0.013028316 -0.0054408945 0.0072274436
0000c0 65 6f 36 3d f7 6c eb bb 76 72 2c bc 6d 07 aa 3c
       0.044539828 -0.0071846205 -0.0105253365 0.020755494
0000d0 ad e2 cc bc 0e 9b 6f 3d ba dc 66 bd 6e 1a 49 3b
       -0.025010431 0.05849748 -0.056362845 0.003068592
0000e0 0e 2f 07 ba 47 0e 82 3c 3c fe c9 bc 06 3c 3a bd
       -0.0005156853 0.015875949 -0.024657361 -0.0454674
0000f0 85 65 02 3a b1 f8 cb bd 23 ed 69 bd 27 97 03 be
       0.0004974234 -0.099595435 -0.057110917 -0.12850629
000100 82 28 39 bd 7f 8b 30 3e 0b 95 9d bc 5c fa 17 3d
       -0.045204647 0.17240714 -0.019236108 0.037103996
000110 8c 1d 19 3d 19 b6 d5 3d bc 94 89 3e 89 00 a6 3b
       0.037381694 0.10435123 0.26871288 0.0050659818
000120 9c cd f5 3d 3d f7 ca 3e 85 df 14 3e ed 3c c6 3d
       0.120021075 0.39641753 0.14538391 0.096795894
000130 4c a7 f8 3b 05 1e 33 3e 03 0e 0f be f4 1e 66 3e
       0.0075883027 0.1749192 -0.13970189 0.22472745
000140 47 c6 8c 3e e1 89 00 be ac 94 85 3e 78 82 53 3e
       0.27495024 -0.12552597 0.2608999 0.20655239
000150 7a b8 e5 3d a4 ca df bc f3 f4 c7 3c a4 05 a4 3c
       0.11216827 -0.027318306 0.024408793 0.02002222
000160 87 90 ed bb b5 4e ed bb ff 05 f7 bb d9 ff a0 bc
       -0.007249895 -0.0072420486 -0.0075385566 -0.019653248
000170 59 6a 3b 3c 52 c5 8d 3b 1e b0 9c bc cc 23 84 bc
       0.0114389295 0.004326501 -0.019126948 -0.01613035
000180 82 38 22 bb f6 fd 9b 3c 80 a2 92 3b 72 26 85 bb
       -0.002475292 0.019041996 0.004474938 -0.004063421
000190 61 a2 b4 bb d8 5c 90 3c 6e a4 ce 3d ee 88 c4 3e
       -0.005512521 0.017622396 0.10089956 0.3838572
0001a0 46 85 be 3e 55 b6 be 3c dd 26 42 bd c5 36 7c bd
       0.37211055 0.023280302 -0.047400344 -0.06157567
0001b0 1b c8 2b bc 7f 29 52 bd e8 c3 be 3c b3 5c 5c bb
       -0.010484721 -0.051309105 0.023286775 -0.003362459
0001c0 57 e7 20 bc 08 8a af bb 1b 01 88 bd b9 44 a8 3e
       -0.009820781 -0.005357031 -0.06640836 0.3286493
0001d0 21 17 2e be a9 2c e1 3e a6 13 a9 3d 1b f4 d2 3e
       -0.1700101 0.43979385 0.08255701 0.41201863
0001e0 de de 00 b9 85 bb 0b be 85 b3 91 3e 76 c0 f0 3e
       -0.00012290056 -0.13645752 0.28457275 0.47021836
0001f0 da 10 2a 3e ad 5e d3 3e f8 30 d6 3e d6 d6 62 3e
       0.16607991 0.4128317 0.41834235 0.22152266
000200 42 3f 85 3d df c1 96 bd b5 e2 03 bc d2 69 58 bc
       0.06506206 -0.07361197 -0.008049657 -0.013208823
000210 1f f5 eb 3c e1 36 06 bc c6 8a cf 3c 79 1e d3 3e
       0.028803406 -0.008191795 0.025334727 0.41234186
000220 e0 65 76 3e d3 37 5e 3f 1c b6 17 3e 03 44 29 3f
       0.240623 0.8680393 0.14815563 0.661194
000230 75 7a a8 bb b4 b5 bd bc 68 0f e5 3c a8 f5 39 bd
       -0.005141551 -0.023157932 0.027961448 -0.04540029
000240 f8 ea 0a bd 28 6d aa 3d 5e d6 45 be 08 a9 39 3e
       -0.03391549 0.08321601 -0.19320056 0.18130887
000250 2b b6 14 3f ab b6 25 3f 9f c0 f8 3b 83 ba 7f be
       0.58090466 0.64731854 0.0075913216 -0.24973492
000260 4f 81 1a 3e 99 5e 54 3d 9b e1 a0 bd 6d 53 66 bb
       0.1508839 0.051848028 -0.07855531 -0.003514494
000270 d6 36 a6 3c ef 0b 66 bc 2f 0d 89 3b 91 3b 43 3d
       0.02028982 -0.014040931 0.00418248 0.04766423
000280 76 15 7a bd 1a 72 21 3e 3a 47 f8 3d 53 a4 db 3e
       -0.061055623 0.15766183 0.121229604 0.42898807
000290 20 b7 87 3e 69 e8 62 bc c0 e7 1c 3c 80 d0 a4 3d
       0.265069 -0.013849356 0.009576738 0.08047581
0002a0 66 14 35 bd 86 e5 b7 bd 34 c1 90 bd 10 e6 ae 3e
       -0.044208907 -0.08979325 -0.070681006 0.341599
0002b0 d8 83 00 3f 0c c3 8f 3e 74 b0 0e 3f 61 1c 8d 3c
       0.5020118 0.28078496 0.55737996 0.017225446
0002c0 e0 98 ba bc 6d e4 51 bd b1 49 07 3d b4 d3 98 3c
       -0.022777975 -0.051243234 0.033029262 0.018655635
0002d0 ae cd 78 3a 4b bc 63 bd b5 35 a5 3d 9b 2e c1 3c
       0.0009491098 -0.055599492 0.080668844 0.023581794
0002e0 b7 af 00 bc bf 83 12 3d f4 18 9f 3d 86 af d3 3d
       -0.007854394 0.035770174 0.07768431 0.10336213
0002f0 b1 05 e6 3d 94 b5 be bd ac ac 93 3c f3 65 6b 3c
       0.11231554 -0.09311977 0.018026672 0.014367568
000300 6b 0d 0e 3c 73 5b da bc fe 82 97 3c 47 9d 9a 3e
       0.008670191 -0.026654935 0.01849508 0.30198118
000310 96 16 df 3d 33 90 c8 3e 3a 11 86 3e cf 0d 14 3f
       0.1089298 0.39172515 0.26185018 0.5783357
000320 6c f8 7b bc ef 9a f1 bb 6c 4d 9d 3c 8c f9 1a 3d
       -0.015379053 -0.007373206 0.019201957 0.037835643
000330 b2 6c a6 3c 22 47 0a bd 3e a6 6e 3d eb ab de bc
       0.020315502 -0.033759244 0.05826401 -0.027181586
000340 5a 3d 95 3d 7a 23 13 3d d4 f1 93 bd 7c e8 ac bd
       0.072870925 0.035922505 -0.072238594 -0.084427804
000350 c1 ea fe 3c 7c cd 24 3e 90 cd bb 3d 11 71 ee bd
       0.031117799 0.16094011 0.09170067 -0.116426595
000360 44 49 b6 bd 71 37 86 bd 86 e9 3a 3d 19 49 20 3d
       -0.08900693 -0.06553543 0.04563286 0.03913221
000370 68 4c 3d 3e 75 06 5d 3e 92 c9 3d 3f 4f 21 a6 3d
       0.18486178 0.21584494 0.74135697 0.08111822
000380 15 9c e8 3e 63 75 2d be 6f 7f 90 bd 1d fa 64 3e
       0.4543158 -0.1693931 -0.07055556 0.22361036
000390 a0 41 99 3d 9f c5 4a 3e ce 51 16 3e f4 46 05 bd
       0.0748322 0.19801949 0.14679644 -0.03253837
0003a0 40 c2 9c 3b 28 48 2b 3d ea 63 c3 bd b3 8e 93 3e
       0.0047838986 0.04181686 -0.095405415 0.28819808
0003b0 75 4d 3e bc e3 85 bb 3a ba 16 b0 3d 95 d8 97 3e
       -0.011615147 0.0014306869 0.08598085 0.29657426
0003c0 f3 47 b4 bd 20 72 c3 bc f5 88 d3 bc 05 b9 07 3d
       -0.08802786 -0.02385813 -0.025822142 0.033135433
0003d0 d5 47 d8 bb cf 3c 00 3d ff 92 23 3d 82 67 df bc
       -0.00660036 0.03130799 0.03993511 -0.027271036
0003e0 ff 14 7f 3c a3 f1 de 3d ff 4c d5 3e e3 80 82 3e
       0.015568971 0.10885932 0.41660306 0.25488958
0003f0 bd 93 eb 3d 8f 22 d1 3e 01 2b b7 3e 75 f8 8a 3e
       0.11502788 0.4084668 0.35774997 0.27142683

conv.4.bias f4 [64]
000000 77 40 88 be 25 62 f9 be 2b a4 9a be 9b f7 28 bf
       -0.26611683 -0.4870769 -0.30203375 -0.66002816
000010 4e bd 3d bf dd f7 32 be 2e 9b 83 bf 6d 4b 1b bf
       -0.7411698 -0.17477365 -1.0281732 -0.60661966
000020 65 60 01 bd f6 57 04 bf b3 f5 73 bf cf c3 32 bf
       -0.03158607 -0.5169672 -0.9529678 -0.6983003
000030 fd 06 4a bf b6 70 61 bf 0a ae af be 03 d9 ae 3e
       -0.78916913 -0.8806261 -0.3431247 0.34149942
000040 dd 1a d2 be c2 b3 96 bf 28 91 63 bf d7 89 2f be
       -0.4103612 -1.1773608 -0.88893366 -0.17142425
000050 ce 82 2c bd 32 ed 15 bf d7 37 14 bf d5 20 54 bf
       -0.042116933 -0.58565056 -0.57897705 -0.828626
000060 c6 97 42 bf a1 a6 44 bf a9 ca 4e bf e0 ee 8a bf
       -0.7601284 -0.76816756 -0.80777985 -1.0854149
000070 ad 8c 18 bf b6 64 3d 3f 5d e9 2b bf cd c5 75 3e
       -0.59589654 0.739818 -0.6715296 0.24001236
000080 32 c5 c2 be f4 0f 63 bf 0b c3 80 bf e6 04 af be
       -0.38041073 -0.8869622 -1.0059522 -0.34183425
000090 60 da cd 3e 51 5e 6a bf d4 e2 47 bf 24 14 f3 3e
       0.4020567 -0.91550165 -0.7808049 0.47476304
0000a0 ff 0a dd be 08 80 8d bf d5 df aa bf 2b e0 a4 3e
       -0.43172452 -1.1054697 -1.3349558 0.32202277
0000b0 c7 16 2c 3f c5 9e cb be e6 88 58 bd 65 63 3a bf
       0.67222255 -0.3976957 -0.05286493 -0.72807914
0000c0 56 21 1f bf 47 5e cb bc d5 01 3e 3e d9 21 3e bf
       -0.6216024 -0.024825228 0.18555386 -0.742704
0000d0 84 bc 89 bf b1 7c 79 bf b1 c9 2e bf 43 d7 57 bf
       -1.0760655 -0.9745589 -0.68276507 -0.8431284
0000e0 f2 0f 7f bf 55 1e 68 bf 36 61 f4 be ea cb 3e bf
       -0.99633706 -0.90671283 -0.47730416 -0.745299
0000f0 e7 65 78 bf 0e 9f 7a bf 02 5a 02 bf f1 08 ca be
       -0.9703049 -0.9789895 -0.5091859 -0.39459947

conv.6.weight f4 [32, 64, 7]
000000 df 7d 17 be 69 b3 21 3d 4d a3 b6 3e 36 27 63 3e
       -0.1479411 0.03947774 0.35671464 0.22182927
000010 4f 2d 4e 3d 36 96 37 3e 39 be d1 bc 8e d2 f5 bd
       0.05033618 0.17928395 -0.0256034 -0.12003051
000020 dc e5 8c 3c 56 37 0c be ce 92 6f bd 2f be 94 be
       0.01719945 -0.13692984 -0.058489613 -0.2905135
000030 5b e2 59 bd cd d0 07 be 6f cf 2d 3e f0 00 1d 3d
       -0.053194385 -0.13263245 0.16973661 0.038330972
000040 8d 7b 97 3d 43 a1 00 be ca 00 55 bd d4 ac 07 3e
       0.07396612 -0.12561516 -0.052002706 0.13249522
000050 bc 3c 9d bd db cf 7d be 9d 13 52 3e 12 f7 b4 3e
       -0.076776 -0.24786322 0.20515294 0.3534475
000060 75 87 af 3e 5d 03 66 3d 53 1c a0 3c 09 36 51 be
       0.34283033 0.05615555 0.019544756 -0.20430769
000070 4f f5 d9 bd b6 58 cf bc ca cf 81 be 69 4d 13 3d
       -0.10642492 -0.025310855 -0.25353843 0.035962496
000080 5e 86 aa 3d b1 31 99 3d 64 14 cf bc da 39 92 3d
       0.0832641 0.07480181 -0.025278278 0.071399406
000090 60 12 be 3e 93 e8 b4 3e 74 01 79 3e 29 f8 1b 3d
       0.37123394 0.3533369 0.2431696 0.03807846
0000a0 f6 c9 86 3d fc c6 15 3e 35 c2 44 bd 2d e2 53 3e
       0.0658149 0.14626688 -0.048036773 0.20691748
0000b0 d5 08 14 3e f4 22 55 3e 59 19 1f 3f cb 57 42 3e
       0.14456494 0.20814115 0.6214805 0.18978803
0000c0 36 08 04 3f 45 16 2e 3d c1 54 28 bd 87 0a a3 bd
       0.5157503 0.042501707 -0.041096453 -0.07960992
0000d0 53 d7 1c be 2e 81 6c 3d c8 e7 4d be 0b 01 be 3d
       -0.15316515 0.057740383 -0.20107949 0.09277543
0000e0 b5 6f e1 bd 95 ed e6 bd 99 c7 97 be 6b b4 ec 3d
       -0.110076346 -0.11275784 -0.29644468 0.115578495
0000f0 dc f6 29 be 56 45 4f 3d 99 17 68 3e 00 e6 ff 3d
       -0.16598076 0.050603233 0.22665252 0.12495041
000100 d3 eb 15 be 74 78 a0 3d f3 22 3b 3e 51 e7 cc 3e
       -0.14640741 0.078354746 0.18275051 0.4002023
000110 e0 0f 41 3e 12 bb 98 bc d7 0f c2 ba b8 c5 89 bc
       0.18853712 -0.01864389 -0.0014805746 -0.016817912
000120 99 58 6a 3c 12 72 63 3e 23 fc 51 3e f7 35 9a 3d
       0.01430335 0.22211483 0.20506339 0.07529824
000130 f1 9f 15 be 75 95 ef be 9a 31 1e 3d 00 8c f0 bd
       -0.14611794 -0.46793714 0.038621522 -0.11745453
000140 62 fb 07 be 5e 80 2d be c3 36 ed bd c2 78 e6 bc
       -0.13279489 -0.169435 -0.115827106 -0.028133754
000150 90 70 11 3b 3c 18 74 be df f2 01 3d 40 4c 02 be
       0.0022192337 -0.2383737 0.03172576 -0.127244
000160 c0 8c 93 bd 52 d6 10 3e bb dd 68 3e 02 78 d9 3d
       -0.0720458 0.14144257 0.22740833 0.10618593
000170 67 94 52 3c dc 33 c4 3c 51 8d 03 3c be 84 20 3e
       0.012852765 0.02395051 0.008029298 0.15675637
000180 b5 1e c0 3d 6e d1 f5 3b 8e 38 17 bd 97 d1 b6 3e
       0.09380857 0.0075017726 -0.03691917 0.3570678
000190 95 f3 c9 3e fa 00 3b 3e 7c 4a 98 bd 7e f9 3d 3e
       0.3944365 0.18262091 -0.07436082 0.18552205
0001a0 28 13 b5 3c 57 7f 4f 3e 10 8e 57 3e ce 07 5c 3d
       0.022103861 0.2026342 0.21050286 0.05371838
0001b0 51 b3 ed bd 55 54 9c be 95 20 1a 3e f2 78 2b be
       -0.116064675 -0.3053309 0.15051492 -0.16745356
0001c0 0a 70 ec bd c3 1e 20 be 11 01 15 3e 32 3e ed 3d
       -0.11544807 -0.15636735 0.14551188 0.115841284
0001d0 97 ee d1 3e fc 4b 19 3e 93 0a 87 3e 93 b5 4b 3e
       0.41002342 0.14970392 0.26375255 0.19893484
0001e0 88 a4 0b bc 45 bb d5 bc e5 a8 e8 3e bf d8 04 bb
       -0.008523114 -0.026090274 0.45441356 -0.0020270792
0001f0 c7 a1 5f 3e 54 ff 1f 3f 3a 21 48 be b7 26 4b be
       0.21839057 0.62498975 -0.19543925 -0.19838987
000200 cc 9b 54 be 3a 9e b6 3d 99 92 43 3e f8 ba 47 3e
       -0.20762557 0.08916898 0.19098891 0.19504917
000210 d8 73 4e bd aa f6 d2 be cb 20 ee be 8c b1 a9 be
       -0.050403446 -0.41203815 -0.46509394 -0.3314327
000220 5c a4 bf be d2 10 48 be 5a 61 07 bd 7e 64 0e bd
       -0.37430084 -0.19537666 -0.033051826 -0.034763806
000230 f5 da 31 3d 5a d1 17 3e 8e 10 b8 bd 37 0a 5c 3e
       0.043421704 0.14825955 -0.089875326 0.21488272
000240 ef 6f 8d 3e a5 7e 86 3e 19 23 68 3e ba 03 90 be
       0.2762446 0.26268497 0.22669639 -0.28127843
000250 e0 45 e5 bd 9d af 6c bd f6 3d ae bd d1 23 1c bc
       -0.11194968 -0.057784665 -0.08507912 -0.009530024
000260 9f a5 99 bd b2 19 c2 bc 81 24 d2 bd e9 39 b1 3d
       -0.07502293 -0.023693893 -0.10260869 0.086536236
000270 c2 1c ef 3a c8 76 dc 3d 04 c5 f7 3e 6a 53 3d 3e
       0.0018242823 0.10764843 0.48392498 0.18488851
000280 53 43 02 be 01 26 1c 3e 17 d0 1f be b6 41 71 bc
       -0.12720995 0.15248872 -0.15606724 -0.014725139
000290 8b 16 f5 3d bb 1d fd 3d 53 b9 21 3e 59 b6 52 3d
       0.1196719 0.12359186 0.15793352 0.05144343
0002a0 84 21 a4 3e f5 26 56 3d 93 94 f6 3d c3 36 a2 bd
       0.3205682 0.052283246 0.12040057 -0.07920601
0002b0 22 d1 13 3e 9b 0e 77 3e b1 6a 05 3e 8a 65 82 3e
       0.14435247 0.24126665 0.13028981 0.25468093
0002c0 9b b0 82 3d f0 3e 58 be 8f 79 e7 bc 5d 96 ff bd
       0.06381341 -0.21117759 -0.028256206 -0.124798514
0002d0 9b 45 c2 3d dd 5d 24 bc b3 36 12 be 76 f4 9b bd
       0.094859324 -0.010032144 -0.14278679 -0.076149866
0002e0 57 15 4e 3e 87 af 4f 3d 99 df 8f 3e 3e 47 8f 3e
       0.20125328 0.050704505 0.2810028 0.2798404
0002f0 f4 7b e2 3e ef 1e 8c 3d 2d fc 8c 3e 9d ee 4b bd
       0.44235194 0.068418376 0.27536145 -0.049788106
000300 24 34 d2 3c 83 df a7 bd a7 94 e3 3d 6c c7 95 3e
       0.025659628 -0.08196928 0.111123376 0.2925371
000310 cf be 25 be df ee 88 bc b6 3e bb be 0c 40 95 3c
       -0.16186069 -0.016715465 -0.36571282 0.018219016
000320 0c 91 f6 bb 02 2a 0a 3e 30 e1 85 bd 60 14 28 bd
       -0.007524615 0.13492587 -0.06537092 -0.041035056
000330 af ec 9f bd 0f c2 4e be b3 ad 98 3d dd a7 c2 bc
       -0.07808816 -0.20191215 0.074550055 -0.023761684
000340 f3 a8 8f bd fc 98 10 be 7d c8 2e be a4 fc 26 3e
       -0.070146464 -0.14120859 -0.17068668 0.16307312
000350 5d 9b 35 3e 80 46 93 3d a1 77 3f 3d 43 a0 be bd
       0.17735048 0.07191181 0.046744946 -0.09307911
000360 ea 8e 2f 3e 1b f9 ee be 35 ca 1a be 58 ae ad be
       0.17144361 -0.46674427 -0.15116198 -0.33922076
000370 69 14 93 be d4 f1 45 bd 9f c4 aa be 9d de 62 be
       -0.2872651 -0.04832633 -0.33353135 -0.22155233
000380 6c 86 ef 3d 44 8c 83 3d 8f 7a 38 3e 32 3f f4 bd
       0.11695561 0.06423238 0.18015502 -0.11926116
000390 40 9e 52 bd 29 1a e7 3d 15 58 9d bd c4 95 86 3d
       -0.05142045 0.112842865 -0.07682816 0.06571534
0003a0 e6 dc 54 bd f1 c9 a0 3c 91 af 3a be 33 8a b4 3e
       -0.051968478 0.019627543 -0.18231036 0.35261688
0003b0 f9 60 84 3e 1c f9 17 be 2a fa a0 3d 37 e2 85 3e
       0.25855234 -0.14841121 0.07860215 0.2614915
0003c0 bd 2f 49 be 11 af 92 3e 52 b1 0e 3e da d1 58 3e
       -0.19647117 0.2864919 0.1393483 0.21173802
0003d0 65 0d 1a 3e 69 7d ef bd 93 68 c1 be 5a 26 e1 bc
       0.15044172 -0.11693842 -0.37775096 -0.027484108
0003e0 e3 55 9b be 52 4f 10 bd a8 04 59 3e 91 3c 8c be
       -0.30338964 -0.035231896 0.21193182 -0.27389959
0003f0 05 28 a0 bd e1 dc 19 3e b0 5e 68 be aa 5c 66 bd
       -0.07820133 0.15025665 -0.2269237 -0.056240715

conv.6.bias f4 [32]
000000 a9 c4 41 bf 80 0a f2 be 39 df f5 be 12 49 44 bf
       -0.75690705 -0.47273636 -0.48021868 -0.76673996
000010 d1 39 3d bf a1 4a 0f bf c0 90 5e be 4c 99 df be
       -0.73916346 -0.5597325 -0.21734905 -0.43671644
000020 cc f6 12 bf a6 4b 00 3f 79 3f 65 bf 77 b4 17 be
       -0.5740783 0.5011543 -0.89549977 -0.14814936
000030 33 08 fe bd c9 3d d8 bd cb 85 5a be 32 f8 1c be
       -0.124039076 -0.105586596 -0.213401 -0.15329054
000040 6e 76 d8 bd e5 e6 59 be 3c 16 38 be db 74 a8 be
       -0.10569464 -0.21279486 -0.17977232 -0.32901654
000050 af 08 44 3e 04 95 e1 3e 3b 80 f3 bd da d2 54 3e
       0.19143938 0.44059002 -0.118896924 0.20783558
000060 01 7a 39 3e 24 c2 c7 be c1 2f 6b 3f b1 27 fd bd
       0.18112947 -0.39015305 0.9186974 -0.12361086
000070 0e c8 35 be eb 41 dc 3e af ef d6 be 9a ef be be
       -0.17752096 0.4301904 -0.4197974 -0.37292176

conv.8.weight f4 [32, 32, 11]
000000 b1 ee 38 3e 30 ee 0a 3e cf 69 f6 3d e0 47 02 3e
       0.18059804 0.13567424 0.120319 0.1272273
000010 1d 3a 84 3e 18 cf c7 3e 65 2f 0c 3e f5 0e 42 bd
       0.25825587 0.39025187 0.13689955 -0.047377545
000020 87 9b 4f 3e 99 6b f8 3d 2e b3 67 3e d7 f4 b4 3d
       0.20274173 0.121298976 0.22626945 0.08835762
000030 4b ec aa 3e 19 cf 80 bb 62 5f c1 bd ba d7 e7 3c
       0.33383402 -0.003930938 -0.09442021 0.028301109
000040 b4 07 25 bd 9d 18 f7 3d 4a a9 6b 3e 33 df 23 3d
       -0.04029055 0.120652415 0.23013797 0.04000778
000050 1a b7 98 3c 01 a5 06 3d 04 35 f4 3c 73 15 81 3c
       0.018641997 0.032872204 0.029810436 0.015757298
000060 48 97 4f 3d ff ad f8 3d ff 5e a2 3d 5c f5 52 3c
       0.050681382 0.12142562 0.07928275 0.012875881
000070 27 2a d1 3d dc 06 9a bd d2 c9 63 3e d8 2f ca 3d
       0.10213118 -0.075208396 0.22244957 0.09872407
000080 c9 dc 23 3e 8a 6b 78 3d ac 89 c4 3c b7 e7 8f bd
       0.16002192 0.060649432 0.023991428 -0.07026618
000090 de 78 50 3c c4 84 70 be 9e f5 18 bd ca bd 4e 3c
       0.0127241295 -0.23488146 -0.037343614 0.012618491
0000a0 a0 cd 2e 3e f8 e4 56 3c b9 35 52 3d 05 4a 77 bd
       0.17070627 0.013116114 0.051320765 -0.060373325
0000b0 08 8f eb 3d 77 41 80 3d 3b 66 5c 3e 37 d7 2f be
       0.115018904 0.062624864 0.21523373 -0.17171942
0000c0 bb 68 7f 3e 37 b3 8b 3e 45 6d 72 3e 04 19 7c 3e
       0.24942295 0.27285168 0.23674496 0.24618918
0000d0 c5 9a 1d be b0 52 09 be 67 88 6f 3d 4b a1 8b 3e
       -0.15391071 -0.13410449 0.058479693 0.27271494
0000e0 60 59 07 be 3b 52 c3 3d fa 28 0e 3e 65 89 a1 bd
       -0.13217688 0.095371686 0.13882819 -0.07887534
0000f0 4c 6a d7 3c b4 e3 8b bd 49 13 cb bd 3b 94 e9 3d
       0.026295803 -0.0683054 -0.09915788 0.11405226
000100 73 08 9c 3e 28 ff 23 bc 7a 1f b8 3d dd ce 65 3e
       0.30475196 -0.010009564 0.08990379 0.22442193
000110 f8 cd 37 3e b2 f4 93 3c 06 2e e8 3d 96 54 2f 3e
       0.17949665 0.018061016 0.11336903 0.1712211
000120 c0 a7 f2 3d 1a 8f 82 3d 71 91 7c 3d 19 ea 20 bd
       0.11848402 0.06374951 0.06166214 -0.039285753
000130 73 aa 31 bd f9 cb 0e 3e 22 20 e9 3c ab 83 89 3e
       -0.043375444 0.13944997 0.028457705 0.26858267
000140 bf 44 0e 3e 6d 20 89 bd 87 72 49 bd 3a ad de 3d
       0.13893412 -0.06695638 -0.049181487 0.10872884
000150 75 33 5e 3e 64 86 ad bc 4e 3a 72 3d 02 d9 46 3d
       0.21699317 -0.021182247 0.059137635 0.0485468
000160 e8 6b 62 bd 1c 17 77 be 5e e3 24 be 2a cc 38 be
       -0.05527869 -0.2412991 -0.16102359 -0.18046632
000170 d2 4d 27 be de 34 5b be 9c 38 d9 3d ca 9c d2 bd
       -0.1633828 -0.21406886 0.106065005 -0.102838114
000180 c9 14 83 3c 7c 9a a1 be 33 a8 ef bd cf b3 33 bd
       0.016001122 -0.31563175 -0.11702003 -0.04387265
000190 0f a8 23 3e 32 88 70 3e ea 9c 0c bd db a3 29 bc
       0.15982078 0.23489454 -0.034329332 -0.010354008
0001a0 27 29 3d bd dc 43 0f be 87 91 b4 be e4 8e 9e bd
       -0.046181824 -0.1399073 -0.3526728 -0.07742098
0001b0 36 85 b0 3d 6f 45 31 bd 3f 59 1e bd 17 aa dd bd
       0.08619158 -0.043279108 -0.03865933 -0.10823458
0001c0 42 54 ae be 58 d3 4b be 72 d6 7a be 0d 23 66 be
       -0.3404866 -0.1990484 -0.24495867 -0.22474308
0001d0 f0 48 49 3e 72 74 83 bd c5 a0 85 3d 42 42 b0 be
       0.1965673 -0.064186946 0.06524805 -0.3442555
0001e0 89 e7 80 3d 05 89 7b 3c 67 ad 17 bd 4a 3c c7 3c
       0.06294162 0.015352492 -0.037030604 0.02432074
0001f0 96 a4 1b 3d 56 ca c8 bc 64 d3 1c 3d c8 17 54 3a
       0.03799876 -0.024510544 0.038287535 0.0008090702
000200 95 de 82 3a 13 75 c0 ba a1 2a 79 bd fc 2f ab 3c
       0.0009984548 -0.0014683328 -0.06083167 0.020896904
000210 b5 28 4e 3d b1 f4 d7 3c 50 1c 55 3d f7 a5 0c bd
       0.05033179 0.026361795 0.052028954 -0.034337964
000220 7e 4f d6 3a 6e 81 df 3c 48 1d ba 3c 14 ce ab bc
       0.0016350595 0.027283397 0.02271904 -0.02097229
000230 79 0c bc bc 22 6e c3 3c 40 08 97 3b 80 fb 56 bc
       -0.022955166 0.023856226 0.004609138 -0.013121486
000240 6e 03 03 bd 54 43 a3 bd 38 b4 ec 3a d3 75 59 bc
       -0.031985693 -0.07971826 0.001805908 -0.01327272
000250 fb 4b 9b bc b2 09 84 bd ea c9 79 bd 9e 1d 14 bd
       -0.018957129 -0.06447162 -0.060983576 -0.036161058
000260 77 be 04 bd cb 88 e5 bc 69 89 c0 3d 34 1f 83 3e
       -0.032408204 -0.02801933 0.09401209 0.25609744
000270 cd 75 76 3e 8d 5f 42 3e 9a 75 a8 3c d3 40 e7 3d
       0.24068375 0.18981762 0.02056389 0.11291661
000280 5a ab f9 bd f0 b4 33 3b fd 9b 97 3d e0 48 c3 3e
       -0.12190886 0.002742108 0.07402799 0.38141537
000290 c3 03 54 3c 23 2e f2 38 42 1d 50 3c bb bd a1 bc
       0.01294035 0.00011548053 0.012702288 -0.01974379
0002a0 0d bf 35 3d 9b e4 78 3d b0 fe a0 3c 4c a2 5a bc
       0.044371653 0.06076489 0.019652694 -0.013344359
0002b0 7e ef 26 3d f6 b3 bf 3c d8 ea 3e 3c 08 04 54 bc
       0.04075574 0.023401242 0.011652671 -0.012940414
0002c0 60 6e 51 3c a9 88 8e 3c e4 57 25 3d fb f5 58 bd
       0.012782663 0.017399149 0.040367022 -0.05296896
0002d0 f4 e9 f0 3c ca 25 86 bc 52 e9 2b 3b 0b e1 04 bd
       0.029408433 -0.016375441 0.00262316 -0.03244118
0002e0 44 26 53 bd c3 2c 71 bc dc eb 91 3c 31 ea 87 3d
       -0.051550165 -0.014720145 0.017812662 0.06636465
0002f0 c5 54 74 bd 97 8d d2 bc 44 97 c7 bd eb f1 b8 bd
       -0.059651155 -0.02570228 -0.097456485 -0.09030517
000300 fb ca 11 be 52 36 09 3e 7c f8 20 be b8 9b 84 be
       -0.14237587 0.13399628 -0.1571979 -0.25900054
000310 cd 73 d6 bd 1a 52 5f bd 3f 1f 8d bd d8 03 ab bc
       -0.10471306 -0.054521658 -0.06890725 -0.020875856
000320 9e b9 f8 3d ab d3 46 bd 0a 3d 2e bd df c3 f1 3c
       0.12144779 -0.048541706 -0.04253868 0.029512344
000330 3e fa 95 bd cb e7 cc bd d7 1b 95 3b 47 9c 9a 3c
       -0.073231205 -0.100051485 0.004550438 0.018873347
000340 39 0c e8 bc 5d 10 3b 3e f0 cb 1b 3e 28 18 34 3e
       -0.02832614 0.18267961 0.15214515 0.1758734
000350 3b 1c 7c 3e d9 93 55 3d 51 2e 3f 3e d6 55 df 3d
       0.24620144 0.05214295 0.18670012 0.10905044
000360 a7 d1 41 be aa c8 97 bd b6 32 1e be d1 ea 8d 3b
       -0.18927632 -0.074113205 -0.15449032 0.004330971
000370 ad 47 27 3e 91 b8 33 be 92 ec 89 be 26 5b 66 bd
       0.16335936 -0.17550875 -0.269383 -0.05623927
000380 6a 78 a2 bd bc ee 5a bd a6 e2 66 be 7d ba be 3d
       -0.079331234 -0.05345033 -0.22547397 0.093129136
000390 a7 7f 37 bd 49 5f 73 be e9 5a fb bd 71 1f 95 3d
       -0.044799473 -0.23766817 -0.12273199 0.072813876
0003a0 f6 96 84 be 72 97 1a be 30 27 63 be 16 a6 93 3d
       -0.25896424 -0.15096834 -0.22182918 0.07209413
0003b0 01 10 84 be 3b 50 17 be a5 54 f1 bc c7 1e 27 be
       -0.2579346 -0.14776699 -0.029459307 -0.16320334
0003c0 f0 fe b4 bd 43 93 37 be a1 fa ef bb 29 4c ac bc
       -0.08837688 -0.1792727 -0.0073235785 -0.02103241
0003d0 86 31 36 3d 54 b0 33 bd e5 39 1a bd 5d a8 31 bd
       0.044480823 -0.04386933 -0.03765287 -0.043373454
0003e0 5a 96 cb bc 94 81 41 bc 3f 53 20 3c a3 87 9e 3c
       -0.024851967 -0.011810679 0.009785472 0.019351786
0003f0 c3 8b e0 bc 71 ee 85 be c5 a0 a8 bd 03 be 1b be
       -0.027410394 -0.2615848 -0.08233789 -0.15209202

conv.8.bias f4 [32]
000000 df d4 04 be 5f 86 3e be 43 b0 c9 bd 6f 18 30 3f
       -0.12971829 -0.18605946 -0.098480724 0.6878728
000010 c3 2e 01 bf cf e1 cb bd bf 55 0f 3c 97 07 83 3d
       -0.5046198 -0.09955179 0.008748471 0.06397932
000020 4b e4 4f bd d8 fa 0a be d0 38 48 be fd 6d 40 bf
       -0.050754827 -0.13572252 -0.19552922 -0.7516783
000030 cb 1f 0c 3f 43 22 90 bd d2 5e 0f be 67 f7 d7 3e
       0.5473601 -0.07037785 -0.14001015 0.4218094
000040 fc ea 8f be de cf b8 be a1 9c 6c be c5 8e c3 3d
       -0.28108966 -0.3609609 -0.23106624 0.095487155
000050 42 db d2 3e 65 bd 1c bf a5 0a cc be 5a 6f 0d 3e
       0.41182905 -0.61226493 -0.3985187 0.13812009
000060 90 6f 87 3e 65 e7 51 3f 85 cf 6f 3f c8 90 ef bd
       0.26452303 0.81993705 0.93676025 -0.11697537
000070 a3 e2 28 be d3 38 6e bd b7 dc ca bd c7 80 28 3f
       -0.16492705 -0.05815966 -0.09905379 0.658215
